backend/model/anime_recommender.pt (torch, 971392 bytes, 19 tensors)

fc1.weight f4 [256, 772]
0	0xbc18b0f4	-0.009319533
1	0x3cacb510	0.021082431
2	0x3cbad97f	0.022808788
3	0xbc7c8462	-0.015412422
4	0xbc7df7e5	-0.015500997
5	0xbc724688	-0.014787324
6	0xbc946b5b	-0.018117597
7	0xbcbe069a	-0.023196507
8	0x3bd40432	0.0064702267
9	0x3d2b0961	0.04175699
10	0x3c0932e1	0.008373947
11	0xbcbfa0eb	-0.023392161
12	0xbba9c6dd	-0.005181177
13	0x3c9b3b33	0.018949127
14	0xbc1ce4be	-0.009576021
15	0xbceae643	-0.02867425
16	0xbc348dc9	-0.011020132
17	0x3b5581f6	0.0032578683
18	0x3d0e8eb1	0.03480405
19	0xbd15cfe0	-0.0365752
20	0x3ccb6320	0.02482754
21	0x3af7da88	0.0018909732
22	0xbc334e9e	-0.010944037
23	0xbd11ad8e	-0.035565905
24	0xbcae50d0	-0.021278769
25	0x3d189aff	0.03725719
26	0x3cd56fe7	0.026054336
27	0x3c793ade	0.015211789
28	0xbc8c036b	-0.017091474
29	0x3b21f0ea	0.0024710246
30	0x3cc84337	0.024446113
31	0xbad5c1f9	-0.0016308419
32	0x3b04e5e6	0.0020278632
33	0xbd068f3d	-0.032851446
34	0xbd0a279e	-0.03372919
35	0x3cf1917c	0.029488318
36	0xbc2213eb	-0.009892444
37	0xbbbde155	-0.005794684
38	0x3b9c2f3b	0.0047663725
39	0xbc2b2377	-0.010445467
40	0xbc2ab111	-0.0104181925
41	0x3d0e600d	0.03475957
42	0xbd1181b3	-0.03552408
43	0x3cb8ca96	0.022557538
44	0xbc9a1407	-0.018808378
45	0xbb236393	-0.0024931177
46	0xbcd2ce42	-0.025733117
47	0xbd0b1aa2	-0.033960946
48	0xbc0ba5cd	-0.008523417
49	0x3ce0d929	0.0274473
50	0xbd0085c3	-0.031377565
51	0xbc764a59	-0.015032374
52	0x3b019115	0.0019770314
53	0x3ce6baaa	0.02816518
54	0xbd214f4f	-0.039382275
55	0x3c24ef0e	0.010066761
56	0x3b550ab9	0.0032507612
57	0x3ce5d345	0.028054843
58	0xbcabeb94	-0.020986356
59	0x3d26464c	0.040594384
60	0x3b45251e	0.0030081938
61	0xbcce1cd8	-0.025160238
62	0x3b6faeb1	0.003657263
63	0xbace8459	-0.0015755995
64	0xbbd2fd79	-0.0064389077
65	0xbcf5eba3	-0.030019587
66	0xbcc9ea62	-0.024647895
67	0x3bc939a3	0.006140904
68	0xbcd75458	-0.026285335
69	0x3bd850f2	0.0066014463
70	0x3d0fd7bd	0.035117853
71	0xbce7b4e8	-0.028284505
72	0x3cd9e453	0.026598131
73	0xbd090ddb	-0.03346048
74	0xbcac3330	-0.021020502
75	0x3a817ba4	0.0009878767
76	0xbd0782ee	-0.03308385
77	0x3ae4d0ef	0.0017457287
78	0x3d2329d0	0.039834797
79	0x3a7a12bf	0.00095395365
80	0xbc79c0f1	-0.015243755
81	0xbc0e3608	-0.008679874
82	0xbc896bab	-0.016774973
83	0xbcc33d7e	-0.023833033
84	0x3c77080a	0.0150776
85	0x3c8842c3	0.016633397
86	0xbcbb04d1	-0.022829445
87	0xbc6ec84f	-0.0145741245
88	0x3ccb45fd	0.024813646
89	0xbc516e49	-0.012782642
90	0xbc6b0d5b	-0.014346446
91	0x3d0ca927	0.034341004
92	0xbd0bbd7b	-0.03411625
93	0xbc9078b7	-0.017635686
94	0x3d0ff74a	0.035147943
95	0xbcbbf57a	-0.0229442
96	0x3c833a0a	0.016018886
97	0xbcefb5ea	-0.029261548
98	0xbcce6c31	-0.025198074
99	0xbb3ec185	-0.0029107046
100	0xbc77f61e	-0.0151343625
101	0x3b854792	0.0040673697
102	0xbb78a489	-0.0037939867
103	0x3d12f8c2	0.035881765
104	0x3cbc1bd5	0.02296249
105	0xbb0ca807	-0.0021462457
106	0x3c154db6	0.009112766
107	0xbc8af3e7	-0.016962005
108	0xbd10d7bd	-0.035361994
109	0x3c0fd0ea	0.008777836
110	0xbced5eda	-0.028975893
111	0x3b1dcc57	0.0024078095
112	0xbcd9cd6d	-0.026587212
113	0xbc2dbf45	-0.010604684
114	0x3bf56d6e	0.0074898517
115	0x3a7ff84b	0.00097644766
116	0xbc4596c4	-0.012059871
117	0x3d074c94	0.033032015
118	0x3d0fade7	0.035077956
119	0xbc2afe7a	-0.0104366485
120	0x3c1bc32a	0.00950698
121	0x3d0c60e2	0.034272082
122	0xbc6e51d0	-0.014545873
123	0x3c98f99e	0.018673714
124	0x3cceb345	0.025231967
125	0x3ce93167	0.02846594
126	0xbbc28ffc	-0.0059375744
127	0xbccbf95e	-0.024899181
128	0x3d191d64	0.037381545
129	0xbbdf33ab	-0.006811579
130	0xba91fc9a	-0.0011137903
131	0x3c4ff9cb	0.012693833
132	0x3c86e35f	0.01646584
133	0xbd0b2bc5	-0.03397729
134	0xbc8c3de0	-0.017119348
135	0x3c1f610c	0.009727728
136	0x3bcd4147	0.006263885
137	0x3cb96b2b	0.02263411
138	0x3cab8ab4	0.020940162
139	0x3cc9def2	0.024642441
140	0xbcfbdacd	-0.03074398
141	0xbc595896	-0.013265749
142	0x3ccb18d0	0.024792105
143	0xbd16f757	-0.036856975
144	0xb981e8ac	-0.0002477815
145	0x3cad3c84	0.02114702
146	0x3c6da217	0.014503977
147	0x3cc2d8af	0.023784963
148	0xbba36da5	-0.004987436
149	0xbc60338b	-0.013684164
150	0xbcd8bf86	-0.026458513
151	0xbaaec94b	-0.0013335136
152	0x3cfe5745	0.031047473
153	0x3cc65181	0.024208786
154	0x3b93efbb	0.004514662
155	0xbca07054	-0.019584812
156	0x3c547d90	0.01296939
157	0xbd0c6cbb	-0.03428338
158	0xbc6dade7	-0.014506794
159	0xbd059cf0	-0.03262037
160	0xbc98dc4b	-0.018659731
161	0xbc8cd239	-0.017190086
162	0xbd09780e	-0.03356176
163	0x3c950325	0.018189976
164	0xbb8fac80	-0.0043845773
165	0x3c9b078e	0.0189245
166	0x396f1f78	0.00022804539
167	0xbb854d69	-0.004068066
168	0x3a96d593	0.0011507742
169	0x3c37c0c6	0.011215394
170	0xbc552ae7	-0.013010717
171	0xbcfb873d	-0.030704135
172	0xbcf6f190	-0.030144483
173	0x3bc432f9	0.0059875217
174	0xbce73504	-0.028223522
175	0x3caad5dd	0.020853931
176	0x3cbfe9fe	0.023427006
177	0x3c86b7bf	0.016445039
178	0xbcadff20	-0.021239817
179	0xbcb1646d	-0.021654332
180	0xbd2463cb	-0.040134232
181	0xbd00b89f	-0.03142607
182	0xbb4cb32b	-0.0031234722
183	0xbc17f960	-0.009275764
184	0x3c54b3f7	0.01298236
185	0xbc3bb81b	-0.011457468
186	0x3cd81e9e	0.026381787
187	0x3c334616	0.010942003
188	0x3cc168c1	0.02360952
189	0xbc110751	-0.008851842
190	0x3cac03f4	0.020997979
191	0x3cf528b4	0.029926635
192	0xba22b3df	-0.00062066125
193	0x3d03ceac	0.03217952
194	0x3cd8d542	0.026468877
195	0xbc87414c	-0.016510628
196	0x3cb7ecc1	0.02245176
197	0xbb5f21cd	-0.0034047246
198	0xbce87462	-0.028375808
199	0x3d126d19	0.035748575
200	0xbca67070	-0.020317286
201	0x3cdab4a5	0.026697466
202	0xb7c2a17e	-2.3201803e-05
203	0xbbff01d2	-0.0077821994
204	0xbc291ba2	-0.01032153
205	0xbce1d3c0	-0.02756679
206	0xbad20876	-0.001602425
207	0xbcdedb1e	-0.027204093
208	0xbd040771	-0.03223366
209	0x3c67d08e	0.014148844
210	0xbca07dae	-0.019591179
211	0x3c3302c1	0.01092595
212	0x3c616c11	0.013758675
213	0x3c508c0a	0.0127287
214	0xbce6cf68	-0.02817507
215	0xbc0a48db	-0.008440222
216	0x3cfc68d4	0.030811705
217	0xbc2c1f3a	-0.010505492
218	0xbc00c766	-0.00786004
219	0xbc591f05	-0.013252025
220	0xbc961f91	-0.018325599
221	0xbb8335cc	-0.004004216
222	0xbc7bbd25	-0.01536492
223	0x3cd6251d	0.026140744
224	0xbc86a6e8	-0.016437009
225	0xbcf356db	-0.029704502
226	0x3d047dd2	0.032346554
227	0x3c16a2a7	0.009194053
228	0xba2d6e14	-0.0006615829
229	0x3a356e4c	0.00069210376
230	0xbcbbc796	-0.022922318
231	0x3cd50993	0.026005542
232	0x3ccbb522	0.024866644
233	0x3a1c01f4	0.0005951219
234	0xbc173278	-0.009228341
235	0x3ac2dd72	0.0014867021
236	0x3ca1d69c	0.019755654
237	0xbce94afc	-0.028478138
238	0x3c94d354	0.018167175
239	0x3cd52208	0.026017204
240	0xbbe8a83b	-0.0071001328
241	0xbca76d8e	-0.020437982
242	0xbd04a8a8	-0.032387406
243	0xbbf133c1	-0.007360906
244	0xbd19c6c7	-0.037543084
245	0x3ad5fa10	0.0016325135
246	0xbd087c4c	-0.033321664
247	0x3ce41741	0.02784312
248	0xbce88342	-0.028382901
249	0xbd14bce7	-0.036312964
250	0x3b719d8e	0.0036867592
251	0xbd289a3c	-0.041162714
252	0x3c95c289	0.018281238
253	0x3ca97369	0.020684915
254	0xbab221e7	-0.0013590426
255	0x3cd6053f	0.026125548

fc1.bias f4 [256]
0	0x3d0bf94c	0.034173295
1	0xbcb17ec2	-0.021666888
2	0xbd152944	-0.036416307
3	0xbc9e8eee	-0.019355264
4	0xbbd4e293	-0.0064967363
5	0x3d0288b9	0.03186867
6	0xbd00c742	-0.031440027
7	0x3cda00ff	0.026611803
8	0x3ca47a18	0.02007775
9	0x3ceea36e	0.029130664
10	0xbd07b979	-0.033135865
11	0x3bf484f7	0.0074621397
12	0x3b87a38e	0.0041393703
13	0xbc45ff9d	-0.012084869
14	0xbcbe93b9	-0.023263799
15	0x3b253f67	0.0025214793
16	0xbceae6a3	-0.02867443
17	0xbcd380ea	-0.025818307
18	0xbcbc8d8e	-0.023016717
19	0xbc886e8d	-0.016654277
20	0xbce441e3	-0.027863448
21	0xbd14fbc5	-0.03637292
22	0x3ce12a32	0.02748594
23	0x3cce970d	0.025218511
24	0xbc234798	-0.0099658
25	0xbcd459a3	-0.025921648
26	0x3c15e2fa	0.009148354
27	0x3b1ac5f5	0.0023616527
28	0x3cdcc63a	0.02694999
29	0xbc2490fd	-0.0100443335
30	0x3ca4060a	0.02002241
31	0xbce0e8e6	-0.027454805
32	0x3c406972	0.01174389
33	0xbcbb539a	-0.022867013
34	0xbcc62a78	-0.024190173
35	0xbd128517	-0.035771456
36	0xbc2c0030	-0.010498092
37	0xbb8baaa7	-0.0042622867
38	0xbc122bab	-0.008921544
39	0xbbafb58c	-0.0053622182
40	0xbad69b99	-0.0016373276
41	0xba598842	-0.0008298197
42	0xbaf79e92	-0.0018891862
43	0x3d000338	0.03125307
44	0x3cd14d52	0.025549565
45	0xbd125277	-0.035723176
46	0x3c265a88	0.01015342
47	0x3c916433	0.017747974
48	0xbc8bca0a	-0.017064113
49	0xbc37a2cd	-0.011208248
50	0x3c088cbb	0.008334334
51	0x3bce48dd	0.006295307
52	0xbc807a1a	-0.015683223
53	0x3aa285d9	0.0012399509
54	0xbce68ca6	-0.028143238
55	0x3caf670e	0.021411445
56	0xbca9bd25	-0.020720074
57	0xbc9fc5c7	-0.019503487
58	0x3bd29859	0.0064268527
59	0xbbb22dc3	-0.005437584
60	0xbc075914	-0.008260984
61	0xbc9fe191	-0.019516738
62	0xbceb5004	-0.028724678
63	0xbce7e061	-0.028305234
64	0x3cf5c5b5	0.0300015
65	0xbcf1fd2e	-0.02953967
66	0xbbea63e2	-0.0071530202
67	0xbc6e2267	-0.014534569
68	0x3cff449e	0.031160649
69	0xbc189cf3	-0.009314763
70	0xbc9eb315	-0.019372502
71	0xbb15f5fc	-0.0022882214
72	0x3c6505bf	0.013978421
73	0x3aeddd1a	0.0018147558
74	0x3c888417	0.016664548
75	0x3c89d7b8	0.016826496
76	0xbc654a23	-0.013994726
77	0x3c01fe1b	0.007934119
78	0x3b6b393b	0.0035892266
79	0xbce2242a	-0.027605135
80	0x3c84a4e0	0.0161919
81	0x3cbe80dd	0.023254806
82	0xbd02d690	-0.031942904
83	0x3b6b5f39	0.0035914911
84	0x3d061113	0.032731127
85	0xbc8cec7b	-0.017202606
86	0x3bad4798	0.0052880757
87	0x3d1c0f3a	0.03810046
88	0x3c115529	0.008870401
89	0xbc9320bf	-0.01795995
90	0x3c88ae83	0.016684776
91	0x3c6b3a25	0.014357124
92	0x3cc1bb40	0.023648858
93	0x3be260e9	0.0069085252
94	0xbc64807f	-0.0139466515
95	0x3d07b858	0.03313479
96	0xbc82e765	-0.015979478
97	0xbc8a0f8a	-0.016853113
98	0x3ce12026	0.02748115
99	0xbc86146d	-0.016367162
100	0xbcaa74dc	-0.020807676
101	0x3cd00fe5	0.025398204
102	0xbc978fec	-0.018501244
103	0xbc208ce3	-0.009799215
104	0xbb2477c6	-0.0025095805
105	0xbbc945e1	-0.0061423634
106	0xbc2ecda0	-0.010669142
107	0x3c9cb87a	0.019130934
108	0x3d0319cd	0.032007027
109	0xbc494f19	-0.012286925
110	0xbcd5efa8	-0.026115254
111	0xbbce1625	-0.006289261
112	0xbcdf0976	-0.027226191
113	0x3d09fc32	0.033687778
114	0x3cc20470	0.023683757
115	0x3ce22065	0.027603338
116	0x3c828fcd	0.01593771
117	0xbc295d4b	-0.010337184
118	0xbc1079a1	-0.008818061
119	0xbcea69ae	-0.028614845
120	0xbcde57b4	-0.02714143
121	0xbc2edec8	-0.010673232
122	0x3cb99bf7	0.022657378
123	0xb98c51a1	-0.000267637
124	0xbc5e886b	-0.013582329
125	0xbc21ba95	-0.009871145
126	0xbb579af5	-0.0032898758
127	0x3c6c311c	0.014416005
128	0x3b783eff	0.0037879345
129	0xbc94c12c	-0.018158518
130	0x3c24e83b	0.010065134
131	0x3ced4547	0.028963698
132	0xbcb5f6dd	-0.02221244
133	0xbc5cf4e3	-0.01348612
134	0xbd13fdc2	-0.036130674
135	0xbb76b225	-0.0037642804
136	0xbbd63894	-0.0065375064
137	0x3c0779e2	0.008268805
138	0xbce22364	-0.027604766
139	0xbc0ca168	-0.008583404
140	0xbc58c66c	-0.013230901
141	0xbca8e4e1	-0.02061695
142	0xbc175e34	-0.009238768
143	0xbcb6aeff	-0.022300242
144	0xbd083821	-0.033256654
145	0x3c00726d	0.007839781
146	0x3d0003c2	0.031253584
147	0xbb462015	-0.0030231525
148	0xbd142521	-0.03616822
149	0x3bbe9104	0.005815627
150	0x3ca39862	0.019970123
151	0xbc2437a2	-0.0100230295
152	0x3ccff0bf	0.025383351
153	0xbcd25ea0	-0.025679886
154	0x3c81eb6a	0.015859324
155	0xbbacf718	-0.0052784793
156	0xbc703db0	-0.014663145
157	0x3c1fd1e6	0.0097546335
158	0x3ca972bc	0.020684592
159	0x3c5c8ae2	0.013460847
160	0xbcff1f22	-0.031142775
161	0x3b5a6a86	0.0033327653
162	0xbcadaa35	-0.021199325
163	0xbd09e515	-0.033665735
164	0x3cb496d6	0.02204458
165	0xbd0d3226	-0.034471653
166	0x3cdf83e5	0.027284572
167	0xbc3982fb	-0.011322732
168	0x3cee6b00	0.029103756
169	0x3b573438	0.0032837521
170	0x3cfb181a	0.030651141
171	0x3c9fe6c2	0.019519214
172	0x3c3400e9	0.010986545
173	0xbbe39883	-0.006945671
174	0xbc4199fb	-0.011816497
175	0xbd12504d	-0.035721112
176	0x3c25c7dd	0.010118452
177	0x3cbc3dc9	0.02297868
178	0xbd075e0d	-0.03304868
179	0xbd17eba4	-0.03708996
180	0xbc45936d	-0.012059075
181	0xbcd33310	-0.025781184
182	0x3d10df8f	0.035369452
183	0x3cc90dc0	0.02454269
184	0xbc8f58b2	-0.017498348
185	0xbd07bff5	-0.03314205
186	0x3ccb052b	0.024782738
187	0xbbaffa7c	-0.0053704362
188	0x3cde2744	0.027118333
189	0x3ce9fa44	0.028561719
190	0xbc953c5e	-0.018217262
191	0xbd08a5c6	-0.03336122
192	0x3ce5f6d2	0.028071795
193	0xbcce718c	-0.025200628
194	0x3b3dc021	0.002895363
195	0x3ce91035	0.02845011
196	0xbd17e905	-0.03708746
197	0xbcd1b93d	-0.025601024
198	0xbc932638	-0.01796256
199	0xbd0b7be4	-0.0340537
200	0xbcb7d258	-0.022439167
201	0xbcd7cf1c	-0.026343875
202	0x3d2884ba	0.041142203
203	0x39f33160	0.0004638536
204	0x3ce0ec7e	0.027456518
205	0x3c470450	0.012147024
206	0x3cde51dd	0.027138645
207	0xbca3280e	-0.01991656
208	0x3d0e2bac	0.034709617
209	0xbbd9950a	-0.0066400813
210	0x3ce2dd5a	0.02769344
211	0x3cb118cb	0.021618268
212	0xbb29b4fa	-0.0025895224
213	0x3c562e0a	0.0130725
214	0x3d0a2aee	0.033732347
215	0xbbae777a	-0.0053243013
216	0xbc05c5d6	-0.008164844
217	0xbc29455e	-0.01033148
218	0xbc474b5b	-0.012163962
219	0x3c35fa9f	0.011107116
220	0x3c25ac02	0.010111811
221	0xbca10f80	-0.019660711
222	0xbcabeec7	-0.020987881
223	0xbca46133	-0.02006588
224	0x3ccd8dde	0.025092062
225	0x3cc1e08f	0.023666648
226	0xbcf1aaae	-0.029500332
227	0xbd1d3c36	-0.0383875
228	0x3ce9eb40	0.028554559
229	0x3cbb2062	0.02284259
230	0xbb0b9d4f	-0.002130348
231	0x3ca17bd2	0.019712362
232	0xbcbe1a2c	-0.02320584
233	0xbd000619	-0.031255815
234	0x3d1426bf	0.036169764
235	0x3d1b922c	0.037981197
236	0x39aef84b	0.0003337286
237	0x3cd66840	0.026172757
238	0xbce68606	-0.02814008
239	0x3c0d9f4f	0.008643939
240	0x3b07c335	0.0020715718
241	0x3c4c8538	0.012482934
242	0xbc674eb6	-0.014117887
243	0xbcbc127a	-0.022958029
244	0xbbcc7fb0	-0.0062408075
245	0x3c7e5bee	0.015524847
246	0x3c7e5d27	0.015525139
247	0x3ad3d36b	0.001616103
248	0x3cbc5b1b	0.022992661
249	0x3c4283e8	0.011872269
250	0xbca17d45	-0.019713053
251	0xbcb93fd5	-0.022613445
252	0x3cc3f7e1	0.023921909
253	0x3cda3959	0.026638674
254	0xbd022c51	-0.031780545
255	0xbcd4f3ab	-0.025995096

fc2.weight f4 [128, 256]
0	0x3ca2db3e	0.019879933
1	0x3cf16920	0.029469073
2	0xbd0958c4	-0.03353192
3	0xbca16771	-0.019702645
4	0x3d11d01d	0.035598863
5	0xbca3362e	-0.019923296
6	0x3d088082	0.03332568
7	0x3c8738e8	0.016506627
8	0xbd1b8dc1	-0.037976984
9	0xbd82fd3f	-0.06395959
10	0x3a23a4b1	0.00062424975
11	0x3d495d7b	0.049161416
12	0xbcc7a8d6	-0.0243725
13	0xbc505ec4	-0.012717906
14	0xbb8ba180	-0.0042611957
15	0xbd8b8d67	-0.0681408
16	0x3d88b5f8	0.06675333
17	0xbd3476e4	-0.044058695
18	0xbd02eaaf	-0.031962093
19	0x3ca36d10	0.019949466
20	0xbd223a14	-0.03960617
21	0xbd253e05	-0.04034235
22	0xbce98ee6	-0.028510522
23	0x3d8a1177	0.067416124
24	0xbd8d47c7	-0.06898456
25	0xbce5ec93	-0.028066909
26	0xbc94a123	-0.018143242
27	0x3ced108a	0.02893855
28	0xbd3b42a0	-0.045717835
29	0xbc6ae392	-0.014336484
30	0xbd524757	-0.051337566
31	0x3d1eeea4	0.038801804
32	0x39a034a2	0.00030556793
33	0xbc5e810f	-0.013580575
34	0x3d25b94a	0.04045991
35	0x3d1e8747	0.03870323
36	0xbc1fde89	-0.009757646
37	0xbd463231	-0.04838771
38	0x3d25bd75	0.040463883
39	0xbd4e87ca	-0.050422467
40	0xbce6b0fa	-0.02816056
41	0x3d29362b	0.041311424
42	0x3c145a75	0.00905477
43	0xbce1aeea	-0.027549226
44	0x3c3c5725	0.011495386
45	0xbcb9afa2	-0.022666756
46	0xbb642d1d	-0.0034816929
47	0xbd1ad2d3	-0.037798714
48	0xbcaa2e0d	-0.020773912
49	0xbd83ec51	-0.06441558
50	0xbd108d0b	-0.03529076
51	0xbcd1c849	-0.025608199
52	0xbcb03e54	-0.021514095
53	0x3c86f120	0.0164724
54	0x3d32bcb2	0.043636985
55	0x3d776d74	0.060407117
56	0x3cc0bc48	0.02352728
57	0xbc99a031	-0.018753143
58	0xbd451f55	-0.048125584
59	0x3bee1f46	0.0072669117
60	0x3be15bda	0.0068774046
61	0xbd3d1927	-0.046166565
62	0xbd375318	-0.04475698
63	0xbd6c9fcc	-0.05776958
64	0xbaf33861	-0.0018556231
65	0x3cafacb9	0.021444665
66	0x3c631f14	0.01386239
67	0x3d99084a	0.07472284
68	0xbd462e75	-0.04838415
69	0x3c2e5ff3	0.010642993
70	0xbcd97a27	-0.026547505
71	0x3cba61c4	0.022751696
72	0xbd0a5fc2	-0.033782728
73	0x3cc3f2b3	0.023919439
74	0x3d810eb7	0.06301635
75	0x3d90c0a1	0.07067991
76	0x3d26cfa0	0.04072535
77	0xbcf3acd4	-0.029745497
78	0x3bb13225	0.005407589
79	0x3c97a911	0.018513234
80	0x3d4670e9	0.048447523
81	0xbcc2f1b2	-0.02379689
82	0xbd36510e	-0.044510894
83	0x3c85a473	0.016313767
84	0xbd13d3c5	-0.03609063
85	0x3d8de8c4	0.06929162
86	0x39c2a709	0.00037127014
87	0x3d8304ae	0.06397377
88	0x3be95d3c	0.00712171
89	0xbcd8bad0	-0.026456267
90	0x3d445ac7	0.047938135
91	0x3cc89308	0.024484172
92	0x3ce202cd	0.027589226
93	0xbc1608a6	-0.009157335
94	0xbc26f559	-0.010190331
95	0xbc79fd9c	-0.015258219
96	0x3cab2f0e	0.02089646
97	0xbc2e880e	-0.010652555
98	0x3c0cc808	0.008592613
99	0x3c10d4c1	0.008839787
100	0x3d06b991	0.032891814
101	0x3cbd985f	0.023143945
102	0xbd602492	-0.054722376
103	0xbcf35097	-0.029701514
104	0x3d37726e	0.044786863
105	0x3ca7107c	0.020393603
106	0x3d13ee07	0.036115672
107	0xbbcc8cf9	-0.006242391
108	0xbd49e1b9	-0.04928753
109	0xbd61cf20	-0.05512917
110	0x3cafe09c	0.021469407
111	0xbd550a40	-0.05201173
112	0xbd981010	-0.07424939
113	0xbc96d98a	-0.018414278
114	0xbd722d44	-0.0591252
115	0xbc93c9ce	-0.018040564
116	0x3ce8e31c	0.028428607
117	0xbd39cec8	-0.045363218
118	0x3d3a98b4	0.045555785
119	0x3c4ad95b	0.012380923
120	0x3d485417	0.04890832
121	0x3cf45b03	0.029828554
122	0x3d01ade0	0.03165996
123	0x3d055c95	0.032558996
124	0x3bc98a16	0.0061504943
125	0xbd1c7254	-0.03819497
126	0xbca48032	-0.02008066
127	0x3d8d0181	0.068850525
128	0xbd52c1d2	-0.051454373
129	0x3d6950e2	0.0569619
130	0xbcca74ea	-0.024713952
131	0xbd36cea5	-0.044630665
132	0xbd32f519	-0.043690775
133	0xbcc3f0dd	-0.023918564
134	0xbd6c7cf8	-0.057736367
135	0xbd43a80e	-0.04776769
136	0x3c1bc240	0.009506762
137	0xbd417a42	-0.047235735
138	0x3b1d15ad	0.0023969219
139	0x3d4df671	0.050283853
140	0xbd1d3bde	-0.038387172
141	0x3d22e73c	0.039771304
142	0x3d5fada6	0.054608963
143	0xba3f4c30	-0.00072974246
144	0xbce8ca1f	-0.028416691
145	0xbccd3b1d	-0.025052601
146	0x3d38651f	0.04501831
147	0xbd55b033	-0.05216999
148	0xbd950286	-0.07275872
149	0x3d440185	0.04785301
150	0xbcbd9b88	-0.023145452
151	0x3d40b73d	0.04704975
152	0xbd6b6cb2	-0.057476707
153	0x3caf4cb0	0.021398872
154	0xbc7c6c58	-0.015406691
155	0xbcb8f134	-0.022575952
156	0x3d3dcfaf	0.04634064
157	0xbd2f8ef2	-0.042860933
158	0xbd020d51	-0.03175098
159	0x3bbf5941	0.0058394973
160	0xbd283d74	-0.04107423
161	0x3c95785f	0.018245874
162	0xbd1a3596	-0.03764876
163	0xbb87b818	-0.0041418187
164	0x3d33ad2c	0.04386632
165	0xbd095f91	-0.033538405
166	0x3a5cbf6e	0.0008420859
167	0x3d17e15d	0.037080158
168	0xbc1c02e3	-0.009522173
169	0xbd1331c7	-0.035936143
170	0xbcc1fc0e	-0.02367976
171	0x3c8fb49c	0.017542176
172	0xbd723986	-0.05913689
173	0x3d878373	0.06616869
174	0x3d0c9b7d	0.034327973
175	0xbd0403ca	-0.032230176
176	0xbd313b95	-0.043269712
177	0xbcd84b90	-0.026403219
178	0x3c13086f	0.008974179
179	0x3d43c90b	0.04779915
180	0xbd792b94	-0.060832575
181	0xbc663d7c	-0.014052745
182	0xbd6ec44b	-0.05829267
183	0xbce8856d	-0.028383935
184	0x3d4f161f	0.050558206
185	0x3c41310c	0.011791479
186	0x3d8c3ce4	0.068475515
187	0x3c14e563	0.009087893
188	0x3c2c1195	0.010502239
189	0x3bf124c8	0.007359121
190	0xbd4009e4	-0.046884432
191	0xbb92e384	-0.0044826884
192	0x3d0f847d	0.03503846
193	0x3d151466	0.036396407
194	0xbd40f1e1	-0.047105674
195	0x3cb2b7c7	0.021816147
196	0x3cd5436b	0.026033124
197	0xbd20d627	-0.03926673
198	0x3d428319	0.047488306
199	0xbd88d076	-0.06680386
200	0xbd17e2f8	-0.03708169
201	0x3a9a0e9a	0.0011753619
202	0x3cecd966	0.028912257
203	0x3a2538dc	0.0006302723
204	0x3cd026e0	0.025409162
205	0x3cf0ff2d	0.029418552
206	0x3d24db08	0.040247947
207	0xbc5035c6	-0.012708133
208	0xbc00979b	-0.007848646
209	0xbbd6de8d	-0.006557292
210	0x3cd29c60	0.025709331
211	0x395bb9f0	0.00020954735
212	0xbd48f13d	-0.049058188
213	0x3cf46ce1	0.029837074
214	0xbd892c79	-0.066979356
215	0x3d1bfcf0	0.038083017
216	0x3d41eae5	0.047343154
217	0xbca33814	-0.019924201
218	0xbd39f37c	-0.04539822
219	0xbcbb49b0	-0.022862285
220	0xbd3a94e1	-0.04555214
221	0x3cd246cb	0.025668522
222	0xbcdae15c	-0.026718788
223	0xbd7bc731	-0.06146926
224	0x3ca232c4	0.019799598
225	0xbcf29af9	-0.029614912
226	0xbd37b72e	-0.04485243
227	0xbd18b9b8	-0.03728649
228	0xbc126907	-0.008936173
229	0x3d4775cd	0.048696328
230	0x3cc4c923	0.02402169
231	0x3d0e8895	0.034798224
232	0x3bccbc91	0.006248065
233	0x3ac813f4	0.0015264736
234	0x3d6ea399	0.058261488
235	0x3d211f70	0.03933662
236	0x3c687876	0.014188876
237	0xbc6e8bcc	-0.014559697
238	0x3d37a140	0.044831514
239	0x3d64c643	0.05585314
240	0xbd0f754d	-0.035023976
241	0xbcd8d88a	-0.026470441
242	0x3ccd3a79	0.025052296
243	0xbcc23f0a	-0.0237117
244	0x3cee5fb5	0.029098371
245	0x3bc54766	0.0060204742
246	0xbd59a0b1	-0.053131763
247	0x3d73df52	0.059539147
248	0x3c1cb410	0.009564415
249	0xbd5a576e	-0.053306036
250	0xbc2d4476	-0.010575404
251	0xbb94c837	-0.004540469
252	0x3c80f139	0.015740024
253	0x3d6e89b8	0.058236808
254	0x3d625c63	0.055263888
255	0xbd5f636a	-0.054538168

fc2.bias f4 [128]
0	0xb9ab2180	-0.0003264062
1	0xbc0aa463	-0.008462044
2	0xbcd105b7	-0.02551542
3	0x3d3e2deb	0.04643051
4	0x3ca8c63a	0.020602334
5	0x3ce98444	0.028505452
6	0x3d4c565d	0.04988705
7	0x3d7a1b21	0.06106103
8	0x3d25cf6c	0.040481016
9	0x3c59e377	0.013298861
10	0x3c8d4b76	0.017247897
11	0xbc9b9ba3	-0.018995112
12	0x3d5023b2	0.05081529
13	0xbceab558	-0.028650925
14	0xbc381e88	-0.011237748
15	0xbd30a706	-0.043128036
16	0xbbd97ff8	-0.0066375695
17	0x3d34caed	0.044138838
18	0xbcee0899	-0.029056834
19	0xbb712c9d	-0.0036800273
20	0xbd48b728	-0.049002796
21	0x3d630d3c	0.055432543
22	0xba2c047f	-0.0006561949
23	0x3d14fc9d	0.036373723
24	0x3d205329	0.039141808
25	0xbd63ba1c	-0.05559741
26	0x3d42aef2	0.047530122
27	0x3d5d9377	0.05409571
28	0xbd7c1886	-0.061546825
29	0x3c96b0ad	0.018394792
30	0x3cf6d3d2	0.0301303
31	0x3d0a5dc4	0.033780828
32	0xbd070846	-0.032966875
33	0x3d32353a	0.043507792
34	0xbd526c84	-0.05137302
35	0x3cc5313e	0.024071332
36	0xbd6e4096	-0.058167063
37	0xbd6a2b39	-0.057170127
38	0x3bf23547	0.007391605
39	0xbd3a8aa5	-0.045542378
40	0xbd2082ba	-0.03918717
41	0xbb473c62	-0.0030400981
42	0x3c0613f2	0.008183466
43	0xbd32c3e2	-0.04364384
44	0xbd17e6dc	-0.0370854
45	0xbd5de288	-0.054171115
46	0x3cf74cf0	0.030188054
47	0x3cfb7a60	0.030698001
48	0xbd5c1f58	-0.05374083
49	0xbd62f4e8	-0.055409342
50	0x3b9f656b	0.004864385
51	0x3d0b1c21	0.033962373
52	0x3d366ab5	0.044535358
53	0x3d7145f9	0.05890462
54	0x3ca6c3a0	0.020356953
55	0xbd0b63f8	-0.034030885
56	0xbd304e07	-0.043043163
57	0x3d691348	0.056903154
58	0xbd705cff	-0.058682438
59	0xbd51f2d4	-0.05125697
60	0xbd04d82b	-0.032432716
61	0xbd1dde3d	-0.03854202
62	0x3c28777a	0.010282392
63	0xbc7b88cc	-0.015352439
64	0xbb3b2c5c	-0.0028560376
65	0xbd261a44	-0.040552393
66	0xbc4639da	-0.012098754
67	0xbc38f499	-0.011288785
68	0xbd6f39fe	-0.058404915
69	0xbca654e2	-0.020304147
70	0x3ba26e5c	0.0049570035
71	0xbd0e772d	-0.034781624
72	0x3ceec915	0.029148618
73	0xbd71f605	-0.059072513
74	0x3ca25ed2	0.019820604
75	0xbb949569	-0.0045344126
76	0xbd47b16e	-0.048753195
77	0xbc944270	-0.018098086
78	0x3d1d07b5	0.038337428
79	0xbd7812a5	-0.060564656
80	0x3d67082a	0.05640427
81	0x3d1eae2a	0.038740315
82	0xbcd29d22	-0.025709692
83	0xbd4e6c57	-0.05039629
84	0xbd207e17	-0.03918275
85	0xbbeb9c2f	-0.0071902494
86	0xbcfbb40c	-0.030725501
87	0xbd6e483e	-0.058174364
88	0xbd3f1f6b	-0.046660822
89	0xbd080574	-0.033208326
90	0x3d5b8894	0.053597048
91	0xbb5aeb20	-0.0033404306
92	0x3d283ff6	0.041076623
93	0xbd829f0b	-0.06377991
94	0x3beb1cf3	0.007175082
95	0x3ca2c35d	0.019868547
96	0xbc221b7c	-0.009894248
97	0x3d6e5b12	0.05819232
98	0xbc457860	-0.012052625
99	0x3cba97cb	0.022777459
100	0x3c8e7433	0.017389392
101	0x3d34a268	0.044100195
102	0xbcba4b4a	-0.022740979
103	0x3d0cab21	0.03434289
104	0xbc39f26d	-0.011349303
105	0x3ba672b0	0.00507959
106	0xbd144897	-0.03620204
107	0xbc4ce87d	-0.012506601
108	0x3d257226	0.040392064
109	0x3d3276f4	0.043570474
110	0x3c8b5dfd	0.01701259
111	0x3b35b4b3	0.0027726113
112	0x3c1734b5	0.009228875
113	0xbc8d688f	-0.017261771
114	0xbcd782d8	-0.026307508
115	0x3cb128f7	0.021625979
116	0x3d6c2b47	0.05765846
117	0xbd52f5df	-0.051504012
118	0xbbbc925c	-0.005754752
119	0x3c1de66d	0.009637457
120	0x3cf162ea	0.029466111
121	0xbd773a97	-0.06035861
122	0xbd5f32af	-0.054491695
123	0x3cb30c0a	0.021856327
124	0xbd0436cd	-0.032278825
125	0x3d50199b	0.05080567
126	0x3ce85655	0.028361479
127	0xbb709cd7	-0.0036714578

fc3.weight f4 [64, 128]
0	0x3da4a47d	0.08039186
1	0x3d81a2c9	0.06329877
2	0xbd69efc4	-0.057113424
3	0x3c092070	0.00836955
4	0xbcb23c24	-0.021757193
5	0x3ccc5112	0.024941001
6	0xbb71633f	-0.0036832837
7	0xbd991872	-0.07475366
8	0x3d4ad1e9	0.049516592
9	0x3cd333f2	0.025781605
10	0x3da606cd	0.08106766
11	0x3d58209a	0.052765466
12	0xbd98587e	-0.074387535
13	0xbda6bd3f	-0.081415646
14	0x3d05e0dd	0.03268515
15	0xbd4fa653	-0.05069573
16	0xbdae713c	-0.085176915
17	0x3d6dd7bb	0.058067065
18	0x3d38b1b9	0.045091365
19	0x3cf05a80	0.029340029
20	0xbd18e228	-0.037325054
21	0x3daaa6b3	0.083325766
22	0xbda9f184	-0.082980186
23	0x3ce8e6a5	0.028430292
24	0x3d31d628	0.043417126
25	0x3d25391f	0.040337678
26	0xbdd5691f	-0.10420441
27	0xbc8d65ea	-0.01726051
28	0xbbb6046b	-0.005554726
29	0x3db07595	0.08616177
30	0x3d097ae5	0.033564467
31	0xbd316378	-0.04330775
32	0x3c754e8c	0.01497234
33	0xbc4e70f1	-0.0126001695
34	0xbd550f78	-0.052016705
35	0xbc408df1	-0.0117525915
36	0x3d0cb65e	0.034353606
37	0x3d6399c7	0.055566575
38	0x3d228dd1	0.039686028
39	0xbd2dc223	-0.04242147
40	0xbc42b9eb	-0.011885147
41	0xbd838354	-0.06421533
42	0xbda39743	-0.07987835
43	0xbcc47a40	-0.023984075
44	0xbd710975	-0.05884691
45	0xbcba1ec3	-0.022719746
46	0xbda51530	-0.08060682
47	0x3c9f45eb	0.01944252
48	0xbd4d52a4	-0.05012764
49	0x3c471139	0.012150102
50	0x3d808117	0.06274622
51	0xbd63835d	-0.0555452
52	0xbda314e7	-0.07962971
53	0x3c820392	0.015870843
54	0x3d04a237	0.032381263
55	0x3da43e8d	0.08019743
56	0xbda17361	-0.07883335
57	0xbcfa5ba2	-0.030561272
58	0x3d5abe2b	0.053404015
59	0xbce39c63	-0.027784532
60	0x3da14999	0.07875366
61	0xbd99bc13	-0.075065754
62	0x3cdd925c	0.027047329
63	0xbd25849a	-0.04040966
64	0xbcd83bb3	-0.026395654
65	0xbd1ca1b3	-0.038240146
66	0x3da34ed5	0.079740204
67	0xbd1cf2ba	-0.03831742
68	0x3d50dbe5	0.050990958
69	0x3ce3489d	0.027744586
70	0x3d1e1d64	0.038602248
71	0xbd2e2cd9	-0.04252324
72	0x3c8f4f67	0.017493917
73	0xbd411fdb	-0.04714952
74	0xbda02a24	-0.07820538
75	0x3b8d510f	0.0043126415
76	0xbce2496b	-0.027622899
77	0xbd49eab4	-0.049296096
78	0x3d5d3521	0.054005746
79	0xbda206c7	-0.07911449
80	0xbd13a2fe	-0.036044113
81	0xbce1caea	-0.027562577
82	0x3b0e355a	0.002169928
83	0x3d670a76	0.05640646
84	0x3d9ff417	0.07810228
85	0xbcde2d50	-0.027121216
86	0xbb88cadc	-0.0041745733
87	0x3d9ab500	0.07554054
88	0xbdc8ca33	-0.098041914
89	0xbd21d008	-0.039505035
90	0x3bcd0f24	0.0062579084
91	0x3c94cb4b	0.018163344
92	0xbd673255	-0.056444485
93	0xbb49108c	-0.0030680029
94	0xbdc54049	-0.09631402
95	0x3d0608aa	0.032723106
96	0x3ceea107	0.029129518
97	0xbdb0e6ce	-0.086377725
98	0x3b9a2f0b	0.004705315
99	0x3d0d059d	0.03442918
100	0x3d98af52	0.07455315
101	0x3d9340ff	0.071901314
102	0xbd3c132d	-0.045916725
103	0xbd104580	-0.03522253
104	0x3d45dc49	0.048305783
105	0xbdc79431	-0.09745062
106	0xbd3b0959	-0.04566321
107	0x3cdfef62	0.027335826
108	0xbcaaad63	-0.02083463
109	0x3d954deb	0.07290252
110	0xbc92ea2d	-0.01793393
111	0xbd86fda0	-0.06591344
112	0x3bbb6a50	0.0057194605
113	0x3cd8a85e	0.026447471
114	0xbd342497	-0.043980207
115	0x3d70aa8d	0.0587564
116	0x3da74eb2	0.08169307
117	0xbd5eab2a	-0.054362454
118	0xbd949cf7	-0.07256501
119	0xbcda8118	-0.026672885
120	0x3ce8369f	0.028346358
121	0x3ce3be7c	0.027800791
122	0x3da9ef38	0.082975805
123	0x3d9abac8	0.07555157
124	0xbcf23a3a	-0.02956878
125	0xbc9227a2	-0.017841164
126	0xbd9b6afa	-0.075887635
127	0xbc1c587d	-0.009542582
128	0xbdc864ab	-0.09784826
129	0x3d5b5849	0.053550992
130	0x3c8da78a	0.017291803
131	0x3cdb447f	0.02676606
132	0x3d69b681	0.057058815
133	0x3bd5a68b	0.0065200976
134	0x3d60b54b	0.054860394
135	0x3d57ef79	0.052718613
136	0xbd882034	-0.06646767
137	0x3da4d68b	0.08048733
138	0xbd0bcced	-0.03413098
139	0x3bd98724	0.0066384245
140	0xbd0ee095	-0.034882147
141	0x3c83a579	0.016070114
142	0x3d1968fe	0.037453644
143	0x3d02d277	0.031938996
144	0x3d7f4dad	0.062329937
145	0xbb3d59d6	-0.0028892658
146	0x3d725743	0.05916525
147	0xbde5e7e5	-0.11225871
148	0xbd47847e	-0.04871034
149	0xbdd7ad41	-0.105310924
150	0x3d9fc891	0.07801927
151	0x3da5baed	0.08092294
152	0x3c1c9c53	0.009558755
153	0xbc9cb5bf	-0.019129632
154	0x3d803517	0.06260126
155	0x3cb6b902	0.022305015
156	0xbd53e10e	-0.0517283
157	0xbd800fb3	-0.062529944
158	0x3d298dfb	0.04139517
159	0x3d97b0d5	0.07406775
160	0xbd4ae1f7	-0.049531903
161	0xbcff2899	-0.031147288
162	0x3da6ed98	0.08150786
163	0x3a13d24e	0.0005638943
164	0xbdb0d991	-0.086352475
165	0xbc7b4745	-0.015336816
166	0x3d9b9f8d	0.07598791
167	0x3d6ddca9	0.058071766
168	0x3d8fdf1c	0.070249766
169	0xbc4368d8	-0.011926852
170	0x3d3158bc	0.043297514
171	0x3da8c754	0.08241144
172	0x3cd07f82	0.025451425
173	0x3da5a0ce	0.08087312
174	0xbd37d10a	-0.04487709
175	0xbc780556	-0.015137991
176	0xbd19ed17	-0.037579622
177	0x3d5d656e	0.05405181
178	0xbc715714	-0.014730234
179	0x3d835b2b	0.06413873
180	0xbd0d045d	-0.03442799
181	0xbd7e8694	-0.062140062
182	0x3d2daf61	0.042403582
183	0x3cd98318	0.026551768
184	0xbd219a3f	-0.03945374
185	0xbb6f3c3d	-0.003650441
186	0x3d8b401c	0.06799337
187	0x3d969e6d	0.07354436
188	0x3c50fc83	0.012755516
189	0x3d9defae	0.07711731
190	0x3d192b9f	0.037395116
191	0x3d82d63b	0.063885175
192	0xbd742fb9	-0.059615824
193	0xbbd219cd	-0.006411767
194	0xbc2d886e	-0.010591609
195	0x3cc12b60	0.023580253
196	0xbd52de56	-0.051481567
197	0xbd13dd83	-0.036099922
198	0xbd129296	-0.035784326
199	0xbd269733	-0.04067154
200	0xbdc82b85	-0.09773926
201	0x3bc04e99	0.0058687446
202	0xbd82c555	-0.06385294
203	0x3d4b4c3c	0.04963325
204	0x3d2693de	0.04066836
205	0xbdc2ceb3	-0.09512081
206	0xbd8983a1	-0.06714559
207	0xbd85f45a	-0.06540747
208	0x3d4a7b92	0.049434252
209	0x3cf0fc14	0.029417075
210	0xbc185242	-0.009296956
211	0xbb46cbc4	-0.0030333856
212	0x3cffcb25	0.031224797
213	0x3d4dcf63	0.050246608
214	0x3d5071be	0.050889723
215	0xbc8d585c	-0.017254047
216	0x3d9d9c8f	0.07695877
217	0x3d0c731e	0.03428947
218	0xbdaed7eb	-0.08537277
219	0x3cfed66f	0.03110811
220	0xbc263253	-0.010143834
221	0xbd9a10ad	-0.07522712
222	0xbd908560	-0.07056689
223	0xbd7d38b5	-0.06182166
224	0x3cf60070	0.030029505
225	0xbd38ade5	-0.045087714
226	0xbd2c55e3	-0.042074095
227	0x3d678d5f	0.056531306
228	0xbcb0722a	-0.021538813
229	0xbd16a6c8	-0.03678015
230	0xbda5b391	-0.0809089
231	0xbd724405	-0.0591469
232	0x3a59142a	0.0008280898
233	0x3d776175	0.060395677
234	0x3d0627b3	0.032752704
235	0x3cf24526	0.029573988
236	0x3d8243b2	0.06360568
237	0xbd8f8387	-0.07007509
238	0xbd6b7cc5	-0.057492036
239	0x3d49adad	0.049237896
240	0xbd87abf7	-0.066245966
241	0xbd0f2729	-0.034949455
242	0xbcdcb15f	-0.026940046
243	0xbda6fdf1	-0.08153904
244	0x3cf29795	0.029613296
245	0x3d9e2c11	0.07723249
246	0x3cee9c76	0.02912734
247	0x3d36dbb3	0.044643115
248	0xbd7349d3	-0.059396576
249	0x3b0ee240	0.0021802336
250	0x3da3bef7	0.07995408
251	0xbd94eb29	-0.07271416
252	0xbd73b213	-0.059495997
253	0x3da7802c	0.08178744
254	0xbd780354	-0.06055005
255	0x3c697738	0.014249615

fc3.bias f4 [64]
0	0x3c8268e4	0.015919156
1	0x3d9b3eda	0.07580347
2	0xbc934a28	-0.017979696
3	0xbcc2c217	-0.02377419
4	0x3c3e65d6	0.011620959
5	0xbd5ba0a2	-0.05361999
6	0xbd0310d1	-0.03199846
7	0xbc3ec355	-0.0116432505
8	0xbd848a10	-0.06471646
9	0xbda3e816	-0.08003251
10	0xbd4fc510	-0.050725043
11	0xbd11de63	-0.035612475
12	0x3d340941	0.043954138
13	0xbd516cbd	-0.05112909
14	0xbc086e9c	-0.008327153
15	0x3d4c859e	0.049932115
16	0x3bbd378d	0.0057744444
17	0x3c339f5b	0.010963286
18	0x3da3a553	0.079905175
19	0x3da97cd8	0.08275765
20	0xbd3cda8d	-0.046106864
21	0x3d8db18e	0.069186315
22	0xbd62dc74	-0.05538602
23	0xbc6d0888	-0.014467366
24	0x3d88c201	0.06677628
25	0xbd47aa85	-0.048746604
26	0x3d9c0db2	0.076198
27	0x3c804ae7	0.015660716
28	0x3d059516	0.032612883
29	0xbcc1a90a	-0.023640174
30	0x3d80e1c8	0.06293064
31	0x3d7b003f	0.06127953
32	0x3d9b8ece	0.07595597
33	0x3c3159d8	0.010824643
34	0x3d8cc3ed	0.068733074
35	0x3dada3ec	0.08478531
36	0x3d89c2a7	0.0672658
37	0xbda058e9	-0.07829458
38	0x3d61023a	0.054933764
39	0x3cb5dcf8	0.022200093
40	0xbd7d0a8f	-0.061777648
41	0xbda6cf2b	-0.08144983
42	0x3d955737	0.072920255
43	0xbda11d29	-0.0786689
44	0xba6fbe7a	-0.00091455097
45	0x3b89615a	0.0041925134
46	0x3da13ebe	0.07873295
47	0xbd0bb46b	-0.034107607
48	0x3d80e3ed	0.062934734
49	0xbc609d58	-0.013709389
50	0x3c171b1b	0.009222771
51	0x3c738705	0.014863734
52	0x3bc95a24	0.006144779
53	0x3bf275fa	0.007399318
54	0xbd995cff	-0.07488441
55	0xbc40b9ff	-0.011763095
56	0x3d0660d4	0.032807186
57	0xbc942e84	-0.018088587
58	0xbd2d890c	-0.042367026
59	0x3d176995	0.036965925
60	0xbc69cf66	-0.014270639
61	0x3d111012	0.035415716
62	0xbca636c7	-0.020289792
63	0xbac94f7d	-0.0015358772

fc4.weight f4 [1, 64]
0	0xbc5e0eae	-0.013553305
1	0x3d28d0c4	0.04121472
2	0xbcb05fe8	-0.021530107
3	0xbcce40d9	-0.025177406
4	0xbda89e9d	-0.08233378
5	0x3ddcb2e1	0.10776306
6	0x3dc83243	0.09775212
7	0x3dd04629	0.10169632
8	0xbd8b0109	-0.06787307
9	0x3da45842	0.08024646
10	0x3d5099a5	0.050927777
11	0xbc17de56	-0.009269318
12	0x3d3fdcb5	0.046841342
13	0x3dc3adc1	0.09554625
14	0x3dad2ff6	0.084564134
15	0x3d88e297	0.066838436
16	0xbd4d0415	-0.05005272
17	0xbd21107f	-0.039322373
18	0x3dea9a19	0.11455173
19	0xbd7261d0	-0.059175313
20	0xbce2ecfe	-0.027700897
21	0x3e08d6d0	0.13363194
22	0x3c315ec5	0.0108258175
23	0x3deb8942	0.11500789
24	0x3d6c7b3f	0.057734724
25	0x3da9acd2	0.08284916
26	0x3d52a908	0.051430732
27	0xbd5d1496	-0.05397471
28	0xbd95ac81	-0.07308293
29	0x3dbe6ede	0.0929849
30	0xbd9b63a0	-0.07587361
31	0xbd9c988d	-0.07646284
32	0xbd1e0450	-0.03857833
33	0x3d643022	0.055709966
34	0x3d32c233	0.043642234
35	0xbca1f9e1	-0.019772472
36	0xbce46f27	-0.027885033
37	0x3dfefd6e	0.124506816
38	0xbd35f353	-0.044421505
39	0x3bd39143	0.0064565255
40	0xbd0c3e2d	-0.034238983
41	0xbd888f46	-0.06667952
42	0x3dbb3c06	0.09142308
43	0xbd9d7756	-0.07688777
44	0xbc5fba06	-0.013655191
45	0x3dea22c8	0.11432415
46	0xbcbc5477	-0.022989495
47	0xbd4d893b	-0.0501797
48	0xbbfc3efb	-0.0076979375
49	0x3d9a8d86	0.07546525
50	0x3d73d57b	0.059529763
51	0x3cc823db	0.02443116
52	0x3d942106	0.07232861
53	0x3de7e767	0.11323433
54	0x3de6de5f	0.11272883
55	0x3ddf0a16	0.108905956
56	0x3dd914a1	0.10599638
57	0xbbb6afcb	-0.0055751554
58	0x3cfcdf28	0.030868128
59	0x3d0a3f65	0.033751864
60	0x3e1cd7f6	0.15316758
61	0xbd2d3462	-0.042286284
62	0xbd900f47	-0.07034164
63	0xbd2be5a1	-0.041967038

bn1.weight f4 [256]
0	0x3f808b87	1.004258
1	0x3f7e3996	0.9930662
2	0x3f7d0dac	0.98848987
3	0x3f82393d	1.0173718
4	0x3f807dff	1.0038451
5	0x3f7e4957	0.9933066
6	0x3f7da312	0.9907695
7	0x3f827bb6	1.0194004
8	0x3f803e9e	1.0019109
9	0x3f7da0ee	0.99073684
10	0x3f8240b0	1.0175991
11	0x3f8034b3	1.0016083
12	0x3f7cd84e	0.98767555
13	0x3f7ea8ec	0.99476504
14	0x3f7c16cd	0.9847229
15	0x3f7cbc6d	0.98725015
16	0x3f806e2a	1.0033619
17	0x3f7b89d5	0.9825719
18	0x3f80a541	1.0050431
19	0x3f802c35	1.0013491
20	0x3f80047c	1.0001369
21	0x3f811792	1.0085318
22	0x3f8057ba	1.0026772
23	0x3f7eaf99	0.9948669
24	0x3f8226dc	1.0168109
25	0x3f7dd2ea	0.99149954
26	0x3f8151fd	1.0103146
27	0x3f7e8fe5	0.99438316
28	0x3f81fa8e	1.0154588
29	0x3f8098c7	1.0046624
30	0x3f80403b	1.0019602
31	0x3f806fa3	1.0034069
32	0x3f81635d	1.0108448
33	0x3f802fd5	1.0014597
34	0x3f7fdcbb	0.9994618
35	0x3f800959	1.0002853
36	0x3f7d96ff	0.99058527
37	0x3f7ef6fb	0.9959561
38	0x3f80416b	1.0019964
39	0x3f806bff	1.0032958
40	0x3f80a4a8	1.0050249
41	0x3f7e907b	0.9943921
42	0x3f7db24c	0.99100184
43	0x3f80e909	1.0071117
44	0x3f8403b5	1.0313631
45	0x3f7ddfed	0.9916981
46	0x3f7d4ec1	0.98948294
47	0x3f7c62e7	0.98588413
48	0x3f7dbcfc	0.9911649
49	0x3f80d004	1.0063481
50	0x3f804e86	1.0023963
51	0x3f832a54	1.0247293
52	0x3f80567b	1.0026392
53	0x3f7d3775	0.98912746
54	0x3f805288	1.0025187
55	0x3f7e98f5	0.99452144
56	0x3f7d9011	0.9904795
57	0x3f80f658	1.0075178
58	0x3f801eed	1.0009438
59	0x3f7bc2fc	0.983444
60	0x3f7f52eb	0.997359
61	0x3f7f3067	0.9968323
62	0x3f8214e6	1.0162628
63	0x3f83e406	1.0303962
64	0x3f7fba0e	0.9989327
65	0x3f7ee0e7	0.99561924
66	0x3f802cc0	1.0013657
67	0x3f7e8edf	0.99436754
68	0x3f7ed9bc	0.99550986
69	0x3f816dda	1.0111649
70	0x3f8080f4	1.0039353
71	0x3f80983c	1.0046458
72	0x3f7fd0f3	0.99928206
73	0x3f7fba73	0.99893874
74	0x3f816c89	1.0111247
75	0x3f7f73c5	0.99786025
76	0x3f7d8820	0.99035835
77	0x3f7eb82b	0.9949977
78	0x3f7cb057	0.98706573
79	0x3f7cdaf3	0.9877159
80	0x3f7f5c3a	0.997501
81	0x3f821074	1.0161271
82	0x3f8066f9	1.0031425
83	0x3f8148f1	1.0100385
84	0x3f7f9875	0.99842006
85	0x3f80ddf8	1.006774
86	0x3f7e919f	0.9944095
87	0x3f80a36b	1.0049871
88	0x3f7d88bb	0.9903676
89	0x3f80c82c	1.0061088
90	0x3f7e64cd	0.9937256
91	0x3f80c1f4	1.005919
92	0x3f80b959	1.0056564
93	0x3f7e0929	0.9923273
94	0x3f7c197b	0.9847638
95	0x3f7f3c4d	0.99701387
96	0x3f80d17e	1.0063932
97	0x3f7ff14b	0.9997756
98	0x3f7e97d3	0.99450415
99	0x3f823dce	1.0175111
100	0x3f7e1db2	0.9926406
101	0x3f79fed7	0.9765448
102	0x3f80bbd0	1.0057316
103	0x3f7f1aa5	0.9965003
104	0x3f8051df	1.0024985
105	0x3f803e3d	1.0018994
106	0x3f7f1814	0.99646115
107	0x3f7b9f20	0.9828968
108	0x3f802a1e	1.0012853
109	0x3f7d771c	0.9900987
110	0x3f7d0217	0.98831314
111	0x3f7c0b26	0.9845451
112	0x3f806f5a	1.0033982
113	0x3f7ecc39	0.9953037
114	0x3f7ea834	0.9947541
115	0x3f7f3e78	0.99704695
116	0x3f7f5c13	0.9974987
117	0x3f80a03f	1.0048903
118	0x3f7fb2bd	0.9988211
119	0x3f7e84ac	0.9942119
120	0x3f7f58a6	0.9974464
121	0x3f7ddbcc	0.9916351
122	0x3f7f6db6	0.9977678
123	0x3f81ca87	1.0139931
124	0x3f7f75d6	0.9978918
125	0x3f80a951	1.0051671
126	0x3f82bf20	1.0214577
127	0x3f80f7e1	1.0075647
128	0x3f811809	1.008546
129	0x3f82e2b4	1.0225434
130	0x3f82e21c	1.0225253
131	0x3f7d9b9b	0.9906556
132	0x3f7e88db	0.99427575
133	0x3f7faa47	0.998692
134	0x3f7e1b8f	0.992608
135	0x3f7e9a63	0.99454325
136	0x3f7d742b	0.99005383
137	0x3f7c8f07	0.9865574
138	0x3f7c53ab	0.9856517
139	0x3f80a25a	1.0049546
140	0x3f81e4f0	1.0147991
141	0x3f7c2509	0.9849401
142	0x3f7c93c1	0.98662955
143	0x3f801ad7	1.0008191
144	0x3f83d13c	1.0298228
145	0x3f81f88f	1.0153979
146	0x3f803379	1.0015708
147	0x3f7da0c5	0.9907344
148	0x3f82cfed	1.0219704
149	0x3f7f1719	0.9964462
150	0x3f7a2bcf	0.97723097
151	0x3f8262e8	1.0186434
152	0x3f7fc421	0.99908644
153	0x3f80e50c	1.00699
154	0x3f83b156	1.0288494
155	0x3f824db9	1.0179969
156	0x3f7df88c	0.9920738
157	0x3f7c9768	0.9866853
158	0x3f7b721e	0.98221004
159	0x3f819399	1.0123168
160	0x3f80200f	1.0009784
161	0x3f80eec5	1.0072867
162	0x3f80807a	1.0039208
163	0x3f8035d0	1.0016422
164	0x3f7e0b6d	0.99236184
165	0x3f7fa3f2	0.99859536
166	0x3f817e94	1.0116754
167	0x3f809291	1.0044729
168	0x3f81324a	1.0093472
169	0x3f834407	1.0255135
170	0x3f802412	1.0011008
171	0x3f800505	1.0001532
172	0x3f812984	1.0090795
173	0x3f7f6b2f	0.99772924
174	0x3f7c0518	0.9844527
175	0x3f80704d	1.0034271
176	0x3f810043	1.0078205
177	0x3f7d605b	0.9897515
178	0x3f7c2c16	0.9850477
179	0x3f800362	1.0001032
180	0x3f82ba03	1.0213016
181	0x3f7e141a	0.9924942
182	0x3f7d3007	0.9890141
183	0x3f80f906	1.0075996
184	0x3f8093dc	1.0045123
185	0x3f7f8806	0.9981693
186	0x3f7d5788	0.9896169
187	0x3f7dbe7d	0.9911879
188	0x3f7fae0a	0.9987494
189	0x3f80062e	1.0001886
190	0x3f7bc51f	0.9834766
191	0x3f7f30d6	0.9968389
192	0x3f7e8c4b	0.9943282
193	0x3f7d1495	0.9885953
194	0x3f80580d	1.0026871
195	0x3f811afe	1.0086362
196	0x3f7f5d74	0.99751973
197	0x3f7dc325	0.9912589
198	0x3f804b60	1.0023003
199	0x3f8153d7	1.0103711
200	0x3f7f93f5	0.9983514
201	0x3f83183f	1.0241774
202	0x3f808577	1.004073
203	0x3f7d15d8	0.98861456
204	0x3f7b9469	0.9827333
205	0x3f7c6e8a	0.9860617
206	0x3f7affe8	0.9804673
207	0x3f7cb366	0.9871124
208	0x3f82084a	1.015878
209	0x3f814506	1.0099189
210	0x3f818d7e	1.0121305
211	0x3f801782	1.0007174
212	0x3f812fc7	1.0092705
213	0x3f7ead44	0.9948313
214	0x3f7dbd5d	0.9911707
215	0x3f7ff005	0.99975616
216	0x3f826ebd	1.0190045
217	0x3f80925d	1.0044667
218	0x3f812366	1.0088928
219	0x3f7cfb18	0.9882064
220	0x3f7c5ef5	0.9858239
221	0x3f7f3ad9	0.9969917
222	0x3f80a9bf	1.0051802
223	0x3f81def2	1.0146163
224	0x3f7be334	0.9839356
225	0x3f7ffd2a	0.9999567
226	0x3f8216cb	1.0163206
227	0x3f803114	1.0014977
228	0x3f7a25e6	0.9771408
229	0x3f7e2851	0.9928027
230	0x3f7cdac6	0.9877132
231	0x3f824804	1.0178227
232	0x3f7eb8ef	0.99500936
233	0x3f7bfc07	0.9843144
234	0x3f80e068	1.0068483
235	0x3f80fdba	1.0077431
236	0x3f7fc1d8	0.9990516
237	0x3f80ed9c	1.0072513
238	0x3f7d0016	0.98828256
239	0x3f7f265d	0.9966791
240	0x3f8145ac	1.0099387
241	0x3f7eec28	0.99579096
242	0x3f80d356	1.0064495
243	0x3f7edfa3	0.9955999
244	0x3f7b2440	0.9810219
245	0x3f7ec25a	0.99515307
246	0x3f80b5b4	1.0055451
247	0x3f7b9be2	0.98284733
248	0x3f80d4ba	1.0064919
249	0x3f80071b	1.0002168
250	0x3f81154f	1.0084628
251	0x3f805273	1.0025162
252	0x3f7e721a	0.99392855
253	0x3f7b66fa	0.98204005
254	0x3f7f31f1	0.9968558
255	0x3f839537	1.0279912

bn1.bias f4 [256]
0	0x3c7141c6	0.014725154
1	0xbc552c72	-0.013011085
2	0xbc9d6b94	-0.019216336
3	0x3c2719d5	0.01019903
4	0xbc3817df	-0.01123616
5	0xbc622a1f	-0.013803988
6	0xbcab3649	-0.020899909
7	0x3cb4f28c	0.022088312
8	0xbb63b3c4	-0.00347446
9	0xbc666997	-0.0140632605
10	0x3ca36a5a	0.019948173
11	0xbaebaac1	-0.0017979966
12	0xbc2422c1	-0.010018052
13	0xbc79779b	-0.01522627
14	0xbcc5f1bc	-0.02416312
15	0xbc4dbf0b	-0.012557755
16	0xbb4dfe61	-0.003143214
17	0xbca5a334	-0.020219423
18	0x3c1b722f	0.009487673
19	0x3a485592	0.00076421455
20	0x3b3d51ae	0.0028887796
21	0x3bae9fde	0.0053291162
22	0xbaa648da	-0.0012686506
23	0x3b244ac8	0.0025068987
24	0x3c52d88e	0.0128690135
25	0xbc688811	-0.014192597
26	0xbb66bdb6	-0.0035208291
27	0xbc503ae5	-0.012709354
28	0x3c3d77c9	0.011564204
29	0xbb8f5e62	-0.004375265
30	0xba618626	-0.00086030585
31	0xbb8ba3b2	-0.0042614574
32	0x3c33b19b	0.010967637
33	0x3b955ac4	0.0045579392
34	0x396120c8	0.00021469884
35	0x3bd8246f	0.00659614
36	0xbc688a9e	-0.014193205
37	0xbc29cc29	-0.010363617
38	0x3aa4a1b9	0.0012560404
39	0x3b5fe8c0	0.003416583
40	0x3c0808ef	0.008302911
41	0xbb8965e7	-0.004193056
42	0xbc28b9bf	-0.010298192
43	0x3b6a32da	0.0035735876
44	0x3cc85e71	0.024459096
45	0xbc2d5e2b	-0.010581533
46	0xba232bc3	-0.00062244775
47	0xbc8000d0	-0.015625387
48	0xbc2be138	-0.010490708
49	0x3b511938	0.00319059
50	0xbac29821	-0.0014846363
51	0x3c9565c1	0.018236997
52	0x3b12e82a	0.0022416213
53	0xbbc23443	-0.0059266402
54	0xbc0a2298	-0.008431099
55	0xbc46b209	-0.012127408
56	0x3b1489fd	0.0022665255
57	0xbb1a4e4b	-0.0023545201
58	0x3b09087a	0.0020909593
59	0xbc835e2f	-0.016036121
60	0x3b6e120e	0.003632668
61	0xbbe0f42e	-0.006865046
62	0x3cde0f95	0.02710704
63	0x3c3eec7b	0.011653061
64	0x3b247235	0.0025092487
65	0xbb95996f	-0.00456541
66	0xbaae2ec8	-0.0013289088
67	0x3ab0f4f4	0.0013500736
68	0xbbcd692e	-0.006268642
69	0x3bd92b8b	0.006627505
70	0x3a7e1c33	0.0009693533
71	0x3b961ebb	0.0045813
72	0xbaa51614	-0.0012595081
73	0xbba37135	-0.0049878606
74	0x3ab644f6	0.001390605
75	0xbb8f07ba	-0.0043649347
76	0xbbbd8ab7	-0.0057843584
77	0xbb3ce49a	-0.002882278
78	0xbc2b4a2c	-0.010454696
79	0xbb70763c	-0.0036691567
80	0xbbeb39cd	-0.0071785212
81	0x3aa4f6f6	0.0012585807
82	0x3a97f8e6	0.0011594563
83	0x3c92eb8b	0.017934581
84	0x3ba2f738	0.0049733184
85	0x3bc1660d	0.005902058
86	0xbac93b50	-0.001535276
87	0x3ba0b120	0.0049039274
88	0xbc8f1f0c	-0.017470859
89	0x3b6daacd	0.0036265135
90	0xbc3dfdca	-0.011596153
91	0x3a8b10d0	0.0010609869
92	0xbc4100e7	-0.01178
93	0xbbb72f54	-0.0055903587
94	0xbc50176c	-0.012700897
95	0x3bd3dc2e	0.0064654564
96	0x3c5759c8	0.013143964
97	0x3b531389	0.0032207689
98	0xb9e53ba3	-0.00043722717
99	0xbc2d3b25	-0.010573183
100	0xbc0d838e	-0.008637322
101	0xbcb2ce42	-0.021826867
102	0x3a7ae04c	0.0009570166
103	0xba577e23	-0.0008220395
104	0x3b45ffc3	0.003021226
105	0xbb72bdc2	-0.0037039374
106	0x3c34de4b	0.011039327
107	0xbba9f0ea	-0.00518619
108	0xbb5be78e	-0.0033554765
109	0xbc541101	-0.012943507
110	0xbc7f832d	-0.01559524
111	0xbb8863c3	-0.004162283
112	0x38dceb48	0.00010534242
113	0xbc66377f	-0.014051317
114	0xbc37cd09	-0.011218318
115	0xbc07820b	-0.008270751
116	0x3aae8e16	0.0013317491
117	0xbaf5f314	-0.001876446
118	0x3c42b20f	0.011883273
119	0xbbec09be	-0.00720331
120	0xbbd39a56	-0.0064576073
121	0xbc4c1ee7	-0.01245854
122	0x3b385786	0.002812834
123	0x3b208827	0.0024495216
124	0xbb251fb2	-0.0025195894
125	0xba895e98	-0.0010480462
126	0x3bb77ff1	0.0055999686
127	0xbbeb6e26	-0.0071847616
128	0x3c15c8c2	0.009142103
129	0x3c68489c	0.014177468
130	0x3c5141da	0.012772048
131	0xbc4a9568	-0.012364723
132	0xba8d9dfe	-0.0010804532
133	0x3b8f611b	0.0043755895
134	0xbc1f11c8	-0.009708829
135	0xbc01edbb	-0.0079302145
136	0xba901f3c	-0.0010995637
137	0xbc392a78	-0.011301629
138	0xbc2b6222	-0.010460408
139	0x3c40cd7e	0.011767743
140	0x3c7b6e7a	0.015346164
141	0xbb82ff7d	-0.0039977417
142	0xbc0bcb0f	-0.0085323
143	0x3b69fe17	0.0035704428
144	0x3c783f8e	0.015151871
145	0x3a206bc6	0.0006119575
146	0xbbe792f8	-0.0070670806
147	0xbc294bb3	-0.0103329895
148	0x3c1b263d	0.009469566
149	0xbbf04705	-0.007332685
150	0xbcc8b599	-0.024500655
151	0x3bea6d8c	0.0071541723
152	0xbbd89174	-0.0066091362
153	0xbb7159d1	-0.0036827216
154	0x3c957b8e	0.018247392
155	0x3c5eb938	0.013593964
156	0x3a13978c	0.0005630187
157	0xbb55cfc2	-0.0032625054
158	0xbc464f52	-0.012103872
159	0xbb51465c	-0.0031932807
160	0x3b34f04c	0.0027609048
161	0xbbf5b766	-0.0074986694
162	0xbb7cfb50	-0.0038601942
163	0x3b11f7d7	0.0022272968
164	0xbc11bce7	-0.0088951355
165	0xbb38fa5c	-0.0028225398
166	0x3c7255ed	0.014790994
167	0x3a4a90bd	0.0007727256
168	0x398a8a4f	0.0002642446
169	0x3a88daae	0.0010441148
170	0x3c13cb4a	0.009020636
171	0x3ba3b65a	0.0049961032
172	0xbc02e536	-0.007989218
173	0xbac2eda0	-0.0014871843
174	0xbc2c52d4	-0.010517795
175	0x3c2b6e82	0.010463359
176	0x3c30dddb	0.010795082
177	0xbc759765	-0.014989709
178	0xbc0756f4	-0.008260477
179	0x3aa8a606	0.0012866862
180	0x3c1dd834	0.009634066
181	0xbba9274e	-0.005162156
182	0xbc0300e1	-0.007995815
183	0xbbeb6edf	-0.0071848477
184	0x3b26cf63	0.0025453202
185	0xbabc2ae4	-0.0014356044
186	0xbc347740	-0.01101476
187	0xbc43628e	-0.011925353
188	0xbc8265a8	-0.015917614
189	0xbbaa4e00	-0.0051972866
190	0xbca94853	-0.02066437
191	0xbc28fe93	-0.0103146015
192	0xbc7df292	-0.015499728
193	0xbbde4e54	-0.00678424
194	0xbac51b22	-0.0015037993
195	0x3bf8a601	0.0075881486
196	0x3b56e5b6	0.0032790727
197	0xbc2a5013	-0.010395068
198	0xbbd391e8	-0.0064566024
199	0x3b05dbc7	0.0020425187
200	0x3be696f9	0.0070370403
201	0x3c7b315a	0.015331591
202	0x3bc55336	0.0060218824
203	0xbca88cd9	-0.020574974
204	0xbc510b36	-0.012759021
205	0xbcc90e45	-0.024542937
206	0xbcfa5e07	-0.030562414
207	0xba05f69f	-0.0005110297
208	0xbb47d8e5	-0.003049427
209	0x3c49b330	0.012310788
210	0x3c0b3a7e	0.008497832
211	0x3a89315a	0.0010466978
212	0x3c5a4070	0.013321027
213	0xbc42e108	-0.011894472
214	0x3b402d07	0.0029323713
215	0xbbb034d5	-0.005377392
216	0x3ca3934a	0.019967694
217	0x3bac1a72	0.005252176
218	0xbb86ee6d	-0.004117778
219	0xbc88a6e8	-0.01668115
220	0xbc9478a6	-0.018123936
221	0xbc07b1de	-0.008282153
222	0xbc06eb3d	-0.008234796
223	0x3a7cd65a	0.0009644978
224	0xbc31c1b1	-0.010849402
225	0x3b7ce7f7	0.003859041
226	0x3c512487	0.012765056
227	0x3c163e6a	0.009170154
228	0xbcae0088	-0.021240488
229	0xbbaad35e	-0.005213185
230	0xbc20c850	-0.009813383
231	0x3c24e715	0.01006486
232	0x3b83a0b9	0.0040169624
233	0xbc8da6a0	-0.017291367
234	0xbbb883de	-0.005630954
235	0x3b6e5cd2	0.0036371243
236	0xbb97e113	-0.0046349852
237	0xbb0e6d55	-0.0021732647
238	0xbcab1629	-0.02088459
239	0xba69c7ae	-0.0008917999
240	0x3bdf0dec	0.0068070795
241	0xbaaaba06	-0.001302541
242	0xbb9d8841	-0.0048075025
243	0xbbb1fd84	-0.0054318327
244	0xbc06d2c0	-0.008228958
245	0xbc0a9e13	-0.008460539
246	0x3c581079	0.013187521
247	0xbb410ea9	-0.00294582
248	0xbbc41722	-0.005984203
249	0x3be8d68f	0.0071056555
250	0xbb39c669	-0.0028347021
251	0x3b780e91	0.003785048
252	0xbc091036	-0.008365681
253	0xbc8a0b1e	-0.016851004
254	0x3b039373	0.00200769
255	0xbaa3d1e0	-0.0012498461
