backend/model/anime_recommender.pt (torch, 971392 bytes, 19 tensors)

fc1.weight f4 [256, 772]
00000000: a238 14bd fc00 8fbb 960b 6b3c 39e2 0ebb
00000010: ddd1 463c 72c8 5fbc 06eb 74bc 9ec8 863c
00000020: af09 bfbc 6ac0 2c3c 20e4 72bc 362f 5fbc
00000030: 33c7 613c ec5f 113c 6b17 ad3c af75 c4bc
00000040: beff 7bbc 052c c33b f151 e7ba 8e19 f43c
00000050: 5d76 9b3a 3591 f5bb 81ed a3bc 405c 013d
00000060: e428 793c 6075 483c 34a1 383a 342e 183d
00000070: e5c2 39bc e22b cfbc b084 3e3c 6a60 c33c
00000080: 0e84 003d 79eb d53c 07f5 163d b861 8c3c
00000090: a61c 1bbd fdb6 033d 6676 03bd 1e32 7fba
000000a0: 44f5 c63c e3b4 21bd 35a6 9fbc 1cda 333d
000000b0: 994a d33b a3ab f63b 1ad2 b6bc ebe9 b7bc
000000c0: d3f0 dabc a20a 823c 5b1b 813c a37b 13bd
000000d0: d891 873c 2655 c9bc 93fe efbb d390 da3c
000000e0: ec21 88bb 4b21 b7bc 2c81 45bc 6866 933b
000000f0: 7569 2ebd b964 85bc 0b4e 653c 57c5 2d3b
00000100: dc9c 46bc a81c 1d3d fb20 e03c 241e a2bb
00000110: 2332 07bd 0bc9 883c d444 c13c e8fb 803c
00000120: 8bb1 0dbc 6eca 223d 8681 cc3c 22d4 a5bb
00000130: e96a 853c ca64 963c 7589 b1ba 146d ae3b
00000140: b02e a73b 3025 1cbd 98ff 96bc a6e7 563c
00000150: 0c52 19bd 9cba f63c cc01 d63c 23ba 1ebd
00000160: 7f77 7d3c 7c9d 17bc 8d52 a1bc cdf8 52bc
00000170: d3a7 c6bc 6b99 55bb f22a 8dbc 4b2d 4e3c
00000180: 125b 38bc 1036 24bc d787 7e3c 67c7 803c
00000190: 6bea bd3c 6484 8e3c ecb9 52bc 49b3 d53c
000001a0: 5705 43bc 9168 e33b dc4b 08bc 6c4a 0f3c
000001b0: 73b5 83bc d67e 26bb 466d 1a3c 4162 52bc
000001c0: 740d eb3c 8d11 dd3c 64af 48bd f324 cabc
000001d0: 3835 023d ecd5 c63c 3669 fdbb 1883 0f3d
000001e0: 0791 f0bc 683d 9a3c df2c 1cbc 9568 0b3d
000001f0: e706 283b 9d0c 043b 058e fa3c 65c0 e0bc
00000200: c7a9 02bd 6faf c2bc 1018 043c 9f1c e73b
00000210: 5dbe e3bc 8ca3 e5bb a6f1 e53c 1d70 bebc
00000220: 9cd8 08bd a5fd 673c f47d d73c fa74 083d
00000230: 2896 06bd 9fcd ce3c c8e7 75bc 9a15 aebb
00000240: 302d 6abc 6226 10bc a429 143c 7020 0dbc
00000250: e591 1e3c 3c27 ea3c ac91 13bd 2f5e 023d
00000260: a182 6e3b 220c ca3b 41b6 d2bc c74d 33bc
00000270: 190d 07bd ebbb b0bb 0f1b 883c 1c71 85bc
00000280: 09f5 e4bc d9ae b03c 9d60 b13b 38a5 b23c
00000290: 86f7 f1bc 6f5c 5bbb c4e9 263d 1c33 173d
000002a0: 30f0 e53b 160c d2bc b730 813c 61db a13c
000002b0: 1b1c 173c b1d7 25bc d852 3b3d 4fce a03b
000002c0: 35f9 1fbc 908f b5bc a970 b63c c35b c13c
000002d0: 4e02 dd3c 89bd 8fbb 5410 1bbd 9a0d 8ebb
000002e0: a742 8cbc 0907 e6bc ac6d e6bc 515c cebc
000002f0: 55e7 c13c 9920 60bc 44ae 363b d7d8 ffbb
00000300: b63d aabb ee44 14bc a7bf 083c 4be8 fb3c
00000310: fd19 d7bc 8e07 233c b25b 30bc 241b ecbc
00000320: 9928 a93b 4078 7cbc 7489 c1bc 43fa 1b3d
00000330: 7e06 7ebc 4313 4ebd c6ba 16bd cbf3 cfbc
00000340: fe29 1b3a be6c 6bbc db81 a4bb 222c ca3c
00000350: 2811 64bc ef31 8bbb f1d5 1f3d 9382 163d
00000360: 3988 953c 46a1 febb 988f 5d3c b529 22bd
00000370: 9496 1a3c b379 043d 58d2 e53c 7205 9fbc
00000380: 7236 083d 73e4 e5bb f334 ed3b 3f17 b43c
00000390: 42e5 873c 508c 1fbd dd7a 3e3d d45f 163c
000003a0: 80cf fe3c cea3 e8bc 4131 d0bc 03e1 c3bc
000003b0: 323e cdbb 9527 9c3c 4320 4dbc 878f a9bb
000003c0: 341c 78bc 1196 82bb 150d fa3b 0112 eebc
000003d0: 7d0f d0bc 73c8 d13b ce0d e2bc 014b 72bc
000003e0: 5112 763c 5a30 5cbc ee9e 743b dfb6 573c
000003f0: 8bcd ac3c 164a 063d 9091 72bc f80c cfbb
-0.03618682 -0.004364131 0.014346024 -0.002180232 0.012134996 -0.01365863 -0.014948612 0.016453084
-0.023320047 0.010543922 -0.014824897 -0.013622096 0.013780403 0.008872967 0.02112933 -0.023981897
-0.015380798 0.0059561753 -0.0017648322 0.029797342 0.0011860837 -0.0074941167 -0.020010712 0.031582117
0.015207503 0.012235016 0.0007043064 0.037153438 -0.01133797 -0.02528948 0.011628315 0.023849685
0.031375937 0.026113259 0.03685477 0.01713644 -0.03786912 0.032156933 -0.032095335 -0.0009734946
0.024286874 -0.039479148 -0.019488433 0.043909177 0.0064481017 0.007527785 -0.022316981 -0.022450408
-0.026726162 0.01587421 0.015760114 -0.03600658 0.016549036 -0.024576735 -0.007324049 0.026680386
-0.0041544344 -0.022354743 -0.012054723 0.0044982918 -0.04258104 -0.01628338 0.013995658 0.0026515329
-0.012122359 0.038357407 0.027359476 -0.0049474407 -0.0330068 0.016697427 0.02359239 0.015745118
-0.008648287 0.039743833 0.024964105 -0.0050606886 0.01628633 0.018358607 -0.0013544994 0.0053230617
0.005102001 -0.038121402 -0.018432423 0.013116753 -0.03743176 0.03011828 0.026123904 -0.038751733
0.015470385 -0.009253856 -0.019692684 -0.012876702 -0.024249947 -0.0032592665 -0.017232392 0.012584041
-0.011252182 -0.010022655 0.015535316 0.015720082 0.023183068 0.017397113 -0.01286171 0.026086466
-0.011903129 0.0069399555 -0.008318868 0.008745771 -0.016077733 -0.002540519 0.009425467 -0.012840808
0.028692938 0.026985908 -0.04899539 -0.024675822 0.031789035 0.024271928 -0.0077334894 0.03503713
-0.02936603 0.018828109 -0.0095321825 0.034035284 0.002563888 0.002014912 0.030585298 -0.02743549
-0.031900194 -0.023765294 0.008062378 0.0070529724 -0.027800733 -0.0070080217 0.028069329 -0.02324682
-0.0334097 0.014159595 0.026305176 0.033314683 -0.032858044 0.025244532 -0.015008874 -0.0053126337
-0.014293 -0.008798214 0.009043131 -0.008613691 0.009678339 0.028583162 -0.036027595 0.0318281
0.003639378 0.006165997 -0.025721671 -0.0109438365 -0.032971475 -0.0053934953 0.016614465 -0.016289286
-0.027948873 0.021567749 0.0054131285 0.021807298 -0.029536974 -0.0033471843 0.04075028 0.036913976
0.007017158 -0.025640529 0.0157703 0.019757928 0.009223009 -0.010122226 0.045733303 0.0049074064
-0.009764005 -0.022163182 0.022270517 0.023603326 0.026978638 -0.004386608 -0.03785737 -0.0043351175
-0.017121626 -0.028079526 -0.028128468 -0.025190504 0.023669878 -0.013679647 0.0027874867 -0.0078078317
-0.005195345 -0.009049637 0.008346475 0.030750414 -0.02625751 0.009950532 -0.010764049 -0.028821535
0.0051623103 -0.015409529 -0.023625113 0.038080465 -0.015504478 -0.05031134 -0.036799215 -0.025384804
0.0005919038 -0.014369188 -0.005020363 0.024679247 -0.013920106 -0.004247896 0.03902239 0.03674562
0.018253433 -0.00777069 0.013523005 -0.039590556 0.009435315 0.032342624 0.028054401 -0.019411776
0.033255048 -0.0070157587 0.007238978 0.02198374 0.01658881 -0.03895217 0.04650389 0.009178121
0.031104803 -0.02839842 -0.025414111 -0.023911005 -0.006263518 0.019061843 -0.012519899 -0.0051745805
-0.015143443 -0.0039851745 0.007630954 -0.02906132 -0.02539801 0.0064020692 -0.027594473 -0.01478839
0.015019015 -0.013439262 0.0037326175 0.013166158 0.021094104 0.032785498 -0.014805213 -0.0063186847

fc1.bias f4 [256]
00000000: ba9a f9bc ef5c 0c3d 2234 c73c fcdf 5d3c
00000010: 0dbf 003d 347a 873c 7cf7 cfbb ed13 d83c
00000020: ae4f 893c d98f bfbb 1458 01bd d438 b5bc
00000030: 12f5 d93c 5889 903c 4bd5 543c 1b12 08bd
00000040: dda7 a93c a21a a43c 84e2 423b dc9b e23c
00000050: c63e 6a3c c1c4 14bd 613c b3bb 8377 623c
00000060: 1c43 473c ac46 2f3c 951a 15bc 058e f0bc
00000070: 55db 203c 0e0b 113d e9b9 9cbb aa92 003b
00000080: 64fa eebc 709a b2bc ce7c 02bd c121 1a3d
00000090: 9e73 573b 8b85 e63c f9eb a5bc e6ed 6a3c
000000a0: bdff 903c 2267 71bc 2273 5bbc 8dd8 013d
000000b0: 2cca 14bc 9276 30bc 2de4 d8bc 8c39 b53c
000000c0: b3f4 2bbc 555b 0abc d2ee 043c 6a64 173d
000000d0: c15e 163d 21ae 0f3d b160 e83c b029 063d
000000e0: 11a3 0c3c b34a 46bb 4a1c b5bc 2f50 d63c
000000f0: a38c 603c 035a c83b 3ff0 04bd 7759 bfbc
00000100: 00b9 0a3c 22f4 f2ba f8ad 74bb 2399 c13c
00000110: 897a 08bd b4c9 3b3b 9061 a63c 1932 013d
00000120: 3454 86bc 9dc0 f2bc 0b7c 07bd dd52 cfb9
00000130: 541c 553b b472 543c e994 ac3c 9334 9d3b
00000140: d5d4 85bc e190 a6bc f27b 1b3c 5b18 bfbc
00000150: b99f f8bb 024e 873c 3a1a caba 7d85 edbc
00000160: 3316 81bb 24d8 dbbc 89c8 00bd 5e4c abbc
00000170: d490 0a3d 236d a13c 3cd6 c13c 62aa 1dbb
00000180: 1de7 b7bc 7c9e 03bd 775f 2f3c 2b81 82bb
00000190: 8ceb 04bd f7d0 eabc 1d30 8d3a e663 143d
000001a0: 743e de3c 54be 073d 70fe b2bc f726 51bc
000001b0: 7be8 7fbc 4d03 f7bc d16b bd3c de85 80bc
000001c0: 3088 03bc 688e 0ebd f561 273c 9607 093d
000001d0: 6796 893c 570a 9bba 4a94 e6bb 0435 dabc
000001e0: 511d 4dbc 0adb f43b 77c5 9ebb 8f14 ccbc
000001f0: 4bb1 d7bc 447d b0bc ac0d 093d 98e8 0ebd
00000200: ac2b e43c 2808 773c 7cd6 ee3c 1886 d83b
00000210: d7e0 aabc 205c 053d c052 0dbc 3f89 c5ba
00000220: 9cce 82bc efd6 6fbc e821 81bc 13b8 b33c
00000230: 03dc 5bbc 5cd6 e63c c360 fb3c 51a2 aa3c
00000240: 03f2 c5bb 0db2 493c b852 363c cbfc 373c
00000250: 5bb8 98bc 4b89 02bc 436b babc 2b00 e1bc
00000260: 3e8e 003d 1e6c 0f3d 4cce afbc 974f 863c
00000270: 2a87 a03b 7cd7 813c e324 96bc c748 c4bc
00000280: 4f71 ddbc db31 1dbc 4a26 4c3c 4ea2 043d
00000290: cab2 c3bc 985d d4bb c303 c23c 63f5 eebc
000002a0: f24f 5b3c f670 90bc bc08 873c 838b 1abb
000002b0: 1fb3 bd3b cd5c 0b3c 926f 333b d787 863b
000002c0: a1fb babc e533 023a 7ac7 b5bc b190 e43c
000002d0: add2 4b3b 15cc a7bc 525c 2ebc ec85 f3ba
000002e0: b0b6 11bb e1ec d23c 9b5c 3e3c fb03 9ebc
000002f0: 770a 553c 3917 7c3b ce31 d83b 5a68 01bd
00000300: 4d87 eabc 7713 0ebd 42e1 15bd 9091 a03c
00000310: 25af e43c b9fe db3b 6c0c 24bc 6a71 103d
00000320: c3a0 8fbc d350 78bb e853 c0b9 4695 363a
00000330: d6f5 163b 8e6f fd3c 49ba ec3c fbf1 cc3c
00000340: cbc9 71bc 2ea8 9d3b c45b 8dbc 7012 93bc
00000350: 315e 8dbc 1865 4ebc 5dc6 43b9 a468 e03c
00000360: fed9 8d3c 90df 0ebd d2d4 983c 072c adbb
00000370: a7cf bdbb 4138 103c 01e3 afbc 0189 a7bc
00000380: f39c 2e3c 5132 d4bb 27ac 0cbd d0fb ab3c
00000390: 10e2 673b 075c 0b3d edcd 9aba 69ce 313b
000003a0: 5f89 d73c 729b 493c d16d aabc cbb1 62bc
000003b0: f1bb 043d 7fac cdbb 003a 9f3c 1201 3f3c
000003c0: 68bb 4abc 2bc9 a23c e8f3 66bc 751e 4bbc
000003d0: 617b 77ba 2102 973c 859a 373c 2bb4 d2bc
000003e0: 3d4e a5bc a1cc a03c 7384 653b 58b8 703c
000003f0: 1603 de3b 48bf d63b f927 e43c 1047 ef3b
-0.030469287 0.034268316 0.024316851 0.013542172 0.0314322 0.016537763 -0.006346641 0.026376689
0.016761627 -0.0058460054 -0.03157814 -0.022121824 0.026606116 0.017643616 0.012990306 -0.03322039
0.020709926 0.02003223 0.0029737065 0.02766221 0.014297193 -0.03632045 -0.005469844 0.013822439
0.012161996 0.010698002 -0.009100576 -0.029364595 0.009817918 0.035410933 -0.0047829044 0.0019618669
-0.02917213 -0.021802157 -0.031857304 0.037629846 0.003287531 0.02813985 -0.020254122 0.014338946
0.01770007 -0.014734061 -0.013394149 0.03170066 -0.009081405 -0.010770457 -0.02647599 0.022122167
-0.010495353 -0.008444627 0.00811358 0.036960997 0.036711458 0.03507817 0.028366419 0.0327546
0.0085838 -0.0030256927 -0.022108216 0.026161281 0.013705405 0.006114246 -0.03245568 -0.02335809
0.008466959 -0.0018535892 -0.0037335139 0.023632592 -0.033319984 0.002865416 0.020310193 0.031541917
-0.016397573 -0.02963286 -0.03307728 -0.00039543855 0.0032518106 0.0129668005 0.0210671 0.004797527
-0.016336838 -0.020332756 0.00949 -0.023327043 -0.0075874 0.01651669 -0.0015419193 -0.028994316
-0.003939414 -0.026836462 -0.031441245 -0.020910438 0.033829525 0.01970536 0.023661725 -0.0024057855
-0.02244907 -0.032133564 0.010703913 -0.003982683 -0.032451198 -0.028664095 0.0010771785 0.036228083
0.02712939 0.033140495 -0.02184984 -0.012765638 -0.0156193925 -0.030152941 0.0231227 -0.015688833
-0.008028075 -0.034803778 0.010216226 0.0334545 0.01679535 -0.0011828643 -0.0070367204 -0.026636608
-0.012519197 0.0074724006 -0.004845317 -0.024912147 -0.026329657 -0.021544106 0.033460304 -0.034889787
0.027852856 0.015077628 0.029155008 0.006607782 -0.020859165 0.03255856 -0.008625686 -0.001507081
-0.01596766 -0.0146386465 -0.015763238 0.02193836 -0.013419154 0.028178386 0.030685788 0.020829352
-0.006040813 0.012310517 0.01112812 0.011229704 -0.018642595 -0.0079673035 -0.022756224 -0.0274659
0.031385653 0.035015218 -0.021460675 0.016395373 0.0048989253 0.015849821 -0.018328136 -0.023960484
-0.027031569 -0.009594406 0.012460301 0.03238135 -0.023888964 -0.006480884 0.023683434 -0.029169744
0.01338576 -0.017631989 0.016483657 -0.002358169 0.005789175 0.008506012 0.0027379734 0.004105549
-0.022825064 0.00049668393 -0.022189844 0.027901025 0.0031100914 -0.020483056 -0.010642128 -0.001857934
-0.0022234134 0.025747718 0.011618759 -0.019289007 0.013002983 0.003846599 0.006597734 -0.031593658
-0.02862897 -0.034686532 -0.036591776 0.01960066 0.027915547 0.006713715 -0.010012727 0.03526441
-0.017532712 -0.0037889972 -0.0003668361 0.00069649925 0.0023034713 0.030936982 0.028897421 0.025017729
-0.014757584 0.0048113083 -0.017255671 -0.017953128 -0.017256828 -0.012597345 -0.00018670545 0.027393647
0.01731586 -0.034881175 0.018656168 -0.0052847895 -0.0057925764 0.0088024745 -0.021470549 -0.02045107
0.010657537 -0.0064757247 -0.034343865 0.020994097 0.0035382546 0.03402331 -0.0011810638 0.0027131087
0.02631062 0.012305127 -0.020804318 -0.013836334 0.032405797 -0.0062766667 0.019436836 0.01165797
-0.012373783 0.019871315 -0.014096238 -0.012397398 -0.0009440687 0.018433632 0.011206274 -0.025720676
-0.020178908 0.019628825 0.0035021573 0.0146923885 0.00677527 0.006553564 0.027851092 0.0073021725

fc2.weight f4 [128, 256]
00000000: eac7 4fbd 0c78 d93c b6e6 4c3c f8b5 b1bc
00000010: f481 763c 2317 52bc 6c70 a7bb cd60 60bd
00000020: 81a3 0e3c 5813 653d d635 883c 26ba dd3c
00000030: d441 ba3c 6d56 f83a f56d 6ebd 9e76 923c
00000040: e24d b6bc 9935 3e3b 3870 b63c c08e 893c
00000050: de39 54bd ee83 3dbd 4ee1 193c da2e 56bd
00000060: 4441 103d 7db2 bebc 98af 863d a1e7 acbb
00000070: c134 e93b 57b2 a23b 310b 503d 064f 59bd
00000080: db6f 123d 752e 4ebd eda0 00bd b8ae abba
00000090: 5169 7fbb 1d69 ee3c cb86 39bd 3c59 813c
000000a0: 3288 7ebd 94f3 d2bc 391d 083d 1dac 6f3b
000000b0: 1a7f 623d 4b1f 6ebd c43a 213c 4bb3 88bd
000000c0: 589c 3bbd 4f13 23bd 6389 9a3b abae 99bc
000000d0: ef80 9bbd 4493 323d 45be 723b 455e 1f3d
000000e0: 3f2c 9cbc fbb9 45bd 1f1f 4fbd fe9a fa3c
000000f0: 5112 e63c d922 83bd 07cd 81bd fae3 9fbb
00000100: 11e6 98bc 43a5 043d 4369 c53c 3ae7 fdbc
00000110: 5ebf d43c e5f6 97bc 9e4f a3bc 8ee8 fabc
00000120: 6d26 8ebd 5d4f 0b3d 7247 3e3d 3c6a 173d
00000130: a6ff afbb 54a8 36bd dedb 0bbd 60a9 913d
00000140: 2b9b 81bc aaee 7abb a4e8 9d3b 3a76 ccbc
00000150: f9f9 d6bc 89e7 e83c 01ab 333d 7776 823d
00000160: c6e5 64ba 8b3d b4bb 327e 37bd 38a1 663d
00000170: 808e adbc 2f08 a9bc 1afc 4cbd 9880 2abd
00000180: e4d2 143d 2c06 ecbc 2899 693d ee59 fabb
00000190: 28f4 2cbd 09e5 3c3d dffd c9bc 11bb 59bd
000001a0: 68c7 53bd 72a4 6bbd ae74 453d e8ac 38bd
000001b0: 1b6e 55bd e576 d4bb a1ce 76bd 58ed e13c
000001c0: 516d 533d 86cc 823d 2fa5 71bd b473 95bd
000001d0: 6f96 a73c 2ca9 bdbb e88c 043d a476 763d
000001e0: 1938 133c a7ba 2dbd c727 a5bb 8a2b afbb
000001f0: 9c99 053c 3d43 acbc fe16 563d 1c52 8e3c
00000200: eb5d 8bbb 9a09 8bbb 7555 113d ab76 c0bc
00000210: a116 1f3d 3641 f73b 1d12 44bd e13b 10bd
00000220: 4ae9 4abd 90e5 26bd 25fa 70bd 3b6a 60bd
00000230: 4d50 823d d6e2 a13d ce2a 16bd a25f 6ebc
00000240: 5b80 ddbc 26fc b1bb dca5 1c3d ca98 69bc
00000250: 8829 343d e362 15bc f63a 6cbc f099 94bc
00000260: f297 ab3c d02a 09bd a3a0 1f3b 9900 2cbd
00000270: e9ff f1bc c4a4 1e3d aa3e 033b 4d0b 97bb
00000280: 10f2 7cbd 344a 44bd c975 af3b 12b3 50bd
00000290: be2b b13c 48d6 093d 3f11 493d 187b 0e3d
000002a0: 1289 3f3d ece2 acbd 72df 25bd 7f1e 11bd
000002b0: bf1a 043d 588a 44bd 493f 31bb d296 fd3b
000002c0: 7f74 59bd e136 e53c 0ffd 6a3d 5ce4 35bd
000002d0: 31d4 93bd 27e1 35bd 8fcf ebbc 2b2a 993c
000002e0: 9b26 eb3b a9c0 13bd 8a93 f9bc 8326 183c
000002f0: 9bcf b33c eccf ffbb 587a 8bbd e25f e1bc
00000300: b2e5 a63d c238 15bd 3d4e 9c3d ca0b 9ebc
00000310: acac febc db6e 01bc 5603 03bc 5f25 123d
00000320: b63b 54bd dc70 b9bc 559e 853a e55c 023b
00000330: 880c 113d 0932 963c 9a57 003d 8c26 ff3c
00000340: 05fb aa3c 319c 52bc 2924 913d 8ef2 cabc
00000350: 7fc7 5cbd 0fd4 7dbd ce93 41bb 443a 6e3d
00000360: 5bbc 373c 863e 973c 9c80 5f3d 0d21 463d
00000370: 8e53 653c d334 e4bc 6e4a ef3c 422e 0cbd
00000380: 09ff dbbc 5420 04bd 6ca6 8bbc 8686 27bd
00000390: f850 d63b 16b6 1cbc 4250 1ebd 4004 d93c
000003a0: 8807 2dbd c3c2 38bd 8a80 ca3b 00a0 89bd
000003b0: 3fc6 7bbd 547e 4c3c 445e 2ebd 078e 25bd
000003c0: 87e6 5ebd aa70 0d3d a33b 22bd ddda 023c
000003d0: 70d4 663c 94d2 29bc 453f 43bd c716 893d
000003e0: 85c8 d63c a863 3b3c d8ec 8d3d c3bb ff3c
000003f0: 0cd2 05bc b035 79bd 34c5 aebb 968d 42bd
-0.050727762 0.0265465 0.012506178 -0.021693215 0.015045632 -0.012822899 -0.0051098373 -0.054779816
0.008705975 0.05592665 0.016627233 0.027066302 0.022736467 0.0018946655 -0.058210332 0.017878827
-0.022253934 0.0029023646 0.022270307 0.016791701 -0.051813 -0.046268396 0.009392096 -0.052290775
0.035218492 -0.02327847 0.065764606 -0.0052766358 0.0071168845 0.0049651074 0.050791923 -0.05305388
0.035751205 -0.050337274 -0.03140347 -0.0013098335 -0.0038972686 0.029102856 -0.045294564 0.01578962
-0.062141605 -0.025750913 0.033230994 0.0036571093 0.055296995 -0.058135312 0.009840671 -0.066748224
-0.045803398 -0.039813336 0.004716085 -0.018760046 -0.075929515 0.043597475 0.003703968 0.03890826
-0.019064067 -0.048273068 -0.05056679 0.030591484 0.028084906 -0.06403131 -0.06337934 -0.004879472
-0.018664392 0.03238417 0.024098044 -0.030994046 0.025970157 -0.018550346 -0.019935425 -0.030628469
-0.06940923 0.034011234 0.046454854 0.036966547 -0.005371052 -0.044594124 -0.03414523 0.07112384
-0.01582106 -0.0038289228 0.0048189927 -0.024958719 -0.026242243 0.028430717 0.043864254 0.063702516
-0.00087317487 -0.0055005006 -0.044798084 0.056306094 -0.021186113 -0.020633785 -0.05004511 -0.041626543
0.036333933 -0.028811537 0.057030827 -0.007640115 -0.042225033 0.046116862 -0.024657188 -0.053156916
-0.05170384 -0.057529874 0.048206978 -0.04508677 -0.052106958 -0.0064839 -0.06025565 0.027578995
0.051617924 0.06386666 -0.058995422 -0.07297459 0.020457475 -0.005787989 0.03236094 0.06017174
0.008985543 -0.042414334 -0.005040142 -0.0053457664 0.008154299 -0.021028155 0.05226802 0.017373137
-0.0042531393 -0.004243088 0.03548189 -0.023494085 0.03883994 0.0075456155 -0.047868837 -0.035213355
-0.049538888 -0.04074627 -0.058832306 -0.05478881 0.063629724 0.07904594 -0.036661915 -0.014549168
-0.027038744 -0.0054316698 0.038244113 -0.014257619 0.04398492 -0.009117815 -0.014418354 -0.01813981
0.020946477 -0.033488095 0.0024357222 -0.041992757 -0.029540973 0.03873135 0.0020026364 -0.0046095015
-0.061754286 -0.047922328 0.0053546173 -0.050952025 0.021627303 0.03365162 0.049088713 0.03478536
0.04676158 -0.084417194 -0.040496297 -0.035429474 0.03225207 -0.047983497 -0.0027045778 0.0077389264
-0.053089615 0.02798027 0.05737024 -0.044407234 -0.07218207 -0.044404175 -0.028785495 0.018696865
0.007176233 -0.036072407 -0.03046586 0.009286526 0.02194958 -0.0078067686 -0.068104446 -0.02751154
0.0814928 -0.03643108 0.0763211 -0.01929273 -0.031088196 -0.007899965 -0.007996401 0.03568017
-0.051814757 -0.022636823 0.0010194281 0.0019891795 0.03541234 0.018334405 0.031333543 0.03114631
0.020871649 -0.012854622 0.07086975 -0.024773862 -0.05390119 -0.061969813 -0.0029537561 0.058161035
0.011214341 0.01846243 0.05456601 0.048371363 0.013996972 -0.02785722 0.029210296 -0.034223802
-0.026855009 -0.032257393 -0.01704713 -0.040899776 0.006540414 -0.009564897 -0.03865076 0.026491284
-0.04224351 -0.045107614 0.006179874 -0.06719971 -0.06146836 0.012481291 -0.042570367 -0.04041865
-0.054419067 0.034531273 -0.039607655 0.007986751 0.014088735 -0.010365147 -0.04766776 0.066937976
0.026218662 0.011437334 0.0692994 0.031217461 -0.008167755 -0.060842216 -0.005333567 -0.047498308

fc2.bias f4 [128]
00000000: 1a0f 673c 67df ac3c a7d6 dc3c 3d07 5c3d
00000010: 20a7 39bd 201b 1a3d 4658 45bc 3685 123d
00000020: 77bc f3bb c094 b4bc 5257 ef3c ec11 b8bc
00000030: b874 e4bc e84a 91bb 3f88 55bd 6c31 543d
00000040: f787 fbbb 3c07 08bb 0aa6 613d edd6 84bc
00000050: 585a 13bd 2579 4cbd fac9 733d 2ba1 743d
00000060: 6335 4b3d 327b 433d e738 fdbc c9eb 5fbd
00000070: 2fb3 a7bc c216 37bc 2f31 7abd 1951 c23c
00000080: db78 053d da33 6a3d 2cdb d9bc 7f97 6f3d
00000090: 48f4 7d3b 91ef 3c3d fb71 a43c f61f 1cbd
000000a0: 2ff1 253d 8943 a13c 3353 50bd 8ae3 a9bc
000000b0: ca06 8b3c 4255 243d d172 963b dc2c 8e3c
000000c0: e9d3 5f3c 90bb 0f3d cd7b 133d 785a 703c
000000d0: 9790 833c af8c d83c 9ea6 683b 688f d13c
000000e0: 9fb1 07bd f17c 1b3c 1809 593d c7ff 35bd
000000f0: 7195 48bc 293d 43bd bf4a 7ebd 54c5 293d
00000100: ccf2 3b3d 826e f93c 38ab 58bc 89af 17bd
00000110: 198c b83c 047d 493d 3e09 213c 10b5 483d
00000120: 7474 b73c d29c 6f3d ce5a 573d 74c6 fe3c
00000130: 3533 4bbd dc4b 223d 35bc 7a3d 1173 5cbd
00000140: 7874 523d 2eb8 3e3d b1dc 463d 35bd 5c3d
00000150: 7f31 f4bc 79f9 c8bc 22b8 193d 7407 7abd
00000160: aab2 253b 9e48 ba3c 6c87 033c 718b 63bd
00000170: 8194 c5bc 63ef 3b3b 9c0c 44bd 3bc9 2c38
00000180: b095 59bd a3ad f03c e8b9 8b3c 40c8 8dbc
00000190: 4f45 c13b bee8 533d 5946 65bd 620d b5bb
000001a0: 0e40 dbbc abdd 0f3d be57 4f3d 7985 10bd
000001b0: 64a3 fbbc f8d5 8ebc fa7c edbc 5660 023d
000001c0: da28 1a3d 6779 51bd b6b9 0c3d 7fb2 02bc
000001d0: e50f 033d 420b 1e3d 3620 793d 93ab 3cbd
000001e0: fbb8 59bd b03f 873c 99da 9c3b d071 52bd
000001f0: b588 1b3d 86ff 0dbb 2ab6 e03c 245c b1bc
0.014102722 0.02110262 0.026957823 0.05371784 -0.0453254 0.037623525 -0.012044972 0.03577157
-0.0074382382 -0.022043586 0.029216442 -0.022469483 -0.027887687 -0.0044339783 -0.052131888 0.051804945
-0.0076761204 -0.0020756265 0.055089988 -0.016215766 -0.03597483 -0.04992022 0.05951879 0.059724014
0.04961146 0.04772491 -0.030910922 -0.05466822 -0.020471184 -0.0111748595 -0.06108206 0.023720311
0.03258596 0.057178356 -0.026593767 0.058494087 0.003875034 0.046126906 0.020073881 -0.038116418
0.040513214 0.019685524 -0.050860595 -0.020738382 0.01697101 0.04012037 0.004591324 0.017355375
0.013661363 0.035090983 0.036006738 0.014670007 0.016060157 0.02643427 0.0035499702 0.025581077
-0.033128377 0.009490238 0.052987188 -0.04443338 -0.012242661 -0.04766575 -0.062083002 0.041447952
0.045885846 0.030448202 -0.0132244155 -0.037032638 0.022527741 0.04919149 0.009828864 0.0490008
0.022394396 0.058499165 0.052576832 0.03110049 -0.04960938 0.039623126 0.061214644 -0.053820673
0.051380605 0.046562366 0.04855031 0.05389138 -0.029808758 -0.02453302 0.03752912 -0.061042264
0.0025283494 0.022739705 0.008027893 -0.055552904 -0.024118664 0.002867662 -0.047863588 4.1195406e-05
-0.05312127 0.029379671 0.01705642 -0.0173074 0.005898155 0.051735632 -0.055975292 -0.005525277
-0.026763942 0.03512351 0.050620787 -0.03528354 -0.03071756 -0.017436013 -0.028990258 0.031830154
0.037636615 -0.05114117 0.034356795 -0.007977127 0.03199758 0.038584955 0.060821734 -0.046062063
-0.053154927 0.01650986 0.004786801 -0.05137807 0.03797217 -0.0021667196 0.027430613 -0.021650381

fc3.weight f4 [64, 128]
00000000: dd8e 12bd a11a 7dbd 47b0 fe39 895f 7cbc
00000010: 8dcc 94bd bf83 35bd af5f 7bbd c343 3d3c
00000020: c746 a3bb 1deb 37bd 5f32 a5bd 95a2 76bb
00000030: faaf 97bd 95c4 b33c 5119 883d 56f2 0bbd
00000040: fc6f 653d 302f 22bd bdaa bebd 0667 a4bc
00000050: 175e 683c 0c72 88bd d5cb 96bd 0b2a 0fbd
00000060: 7812 9fbc b614 a2bc b4e6 8f3d 70c6 25bd
00000070: d3e5 d03b 1f9b d4bc 75f8 81bd a6e5 6fbd
00000080: 7461 9b3d 2693 493d 7c07 38bc f460 253d
00000090: 7685 a5bd e81d 263d fcb3 9bbd 6f36 ee3c
000000a0: 36fb 49bb 99a2 6d3d 32aa 63bd 0c5c 163d
000000b0: 3045 963b 9f58 913d 3178 f43c 0ebe c73d
000000c0: cf71 87bd b663 89bd ca92 163d e5f1 5cbd
000000d0: d4ca a8bd 8973 81bb 43e2 c4bc d688 febc
000000e0: 5749 90bd 47b0 573d feaf b83c a498 8fbc
000000f0: 47df 07bd 896a bcbd 0bfc b2bd e9ce 593d
00000100: d5b5 86bd c121 273d 48b6 c5bd 813c 133c
00000110: 157b 463d d468 1b3d 471f 8fbd e4ad 763d
00000120: 8a61 1fbc c072 303d ef0a dbbc 72a2 7e3c
00000130: 6806 783d dcf2 953c 4413 a73b 9be0 58bd
00000140: 2c5b 5b3d 1dd9 83bd b5f6 b8b9 61a8 913d
00000150: 3a76 cbbd 3019 a63d 22f8 003c d3b1 b7bd
00000160: 2fd3 9d3d aa05 c1bd 891a b8bd 9d51 1a3d
00000170: 74d6 25bd 4d6c 963c 1741 bb3b 57d6 813d
00000180: 599d a0bc f7cc abbd 6001 b53d 294f 823d
00000190: d090 8bbd 5657 26bd 0170 aebd b6a2 30bd
000001a0: 19d1 3f3d 4b4b 47bd 66f6 4e3d da5d 60bd
000001b0: 75a5 8f3d fbb0 6a3d bf2a 81bc 58f5 7abd
000001c0: b317 33bd 96ed 81bd 0686 983d 06c9 38bd
000001d0: e0c9 9dbc d265 77bd 7a75 81bc c4e2 493d
000001e0: 60f0 203b 7329 a23d 9fa1 3e3d e05c 3a3d
000001f0: 3db4 8ebd 3670 12bb b68b a1bd 5f82 a5bc
00000200: 796a 13bc d51c 343d 6382 903d cdfc 0a3d
00000210: 0811 8dbd 70b0 9cbc 8644 86bd c2c4 c73c
00000220: fe7b 46bd 046b 103d e439 863d e2e1 3f3d
00000230: d4e8 17bd 87ea e0bc f8b8 40bd 413b f63a
00000240: cf96 933d 7c4a 493d fa98 a33c c297 11bc
00000250: 882b 69bd 932c 853d e437 6f3d 0127 96bd
00000260: b87a b3bd 2a53 b9bd 787e a5bd 4739 b1bb
00000270: a25e cdbd ac62 61bd 4f34 81bd df19 9c3d
00000280: dfa3 893d 561b 9b3c dc9e c93c 25d9 07bd
00000290: f43b aabc b8fc 4bbd 74fb 05bd e137 ebbc
000002a0: 106c 32bd 15d5 3fbd 8572 5d3d 8081 d6bd
000002b0: a22d e43c 9009 323d 38c1 c1bd f500 113d
000002c0: 97d9 e2bd 2112 053d 998d 9abd 75ed 9f3d
000002d0: 9714 49bc 58af 66bd 88e3 ad3d 3ff2 233d
000002e0: 4c87 adbc 8038 393d a9e9 563d 3d9d 063d
000002f0: a13f 4abd 88e8 443d 6af9 44bd b815 0abd
00000300: 8e9e 053d dc72 99bd a1d1 333c b8d8 9bbd
00000310: 2955 1c3c a28f 123d d8a9 4abd 105d 7a3c
00000320: a01b 9dbb 33fd 1abb eecc 3ebd f7c5 86bc
00000330: 69fc 58bb fb02 b73d d1eb b5bc 14d6 b53d
00000340: c298 73bc 412c 873d 33ec 87bc d847 65bd
00000350: 8876 1d3d 63f1 873d 7cb8 d2bc 15bc dcbc
00000360: f9d2 0e3d b4ec 6fbc fb85 113d 15c6 583d
00000370: 8e73 7e3d eaaf 023d 6539 cdbb 3141 aabd
00000380: 533d 91bd 6204 a73d b841 a4bd af1c 283d
00000390: 70cf 86bd 9517 87bd 8904 9a3d f48f 60bd
000003a0: 2c00 10bd 71db 203c 91fa 8bbc 7e3c a3bd
000003b0: 1fbb 63bd 170b 8fbd c198 aabd af68 3c3d
000003c0: 5cd4 9bbd a114 e83b 842c 45bd 82d8 54bc
000003d0: d2cf 27bd 1724 81bd 2ba9 263d 37b6 3abd
000003e0: e820 bb3c 334e 30bd f5ac 9c3d 094e a0bd
000003f0: cd9c 7e3d 93b6 3ebd bb30 f2bb 578f a3bd
-0.035780776 -0.061792973 0.00048577992 -0.015403637 -0.072655775 -0.044315096 -0.061370548 0.0115518
-0.0049828026 -0.044901956 -0.08066248 -0.0037633528 -0.07406612 0.021944324 0.06645454 -0.034166656
0.056015 -0.039595783 -0.093099095 -0.020068657 0.014182589 -0.06662378 -0.073630966 -0.034952205
-0.019417986 -0.019785266 0.07026425 -0.040472448 0.0063750534 -0.025952874 -0.063462175 -0.05856862
0.07586947 0.049212597 -0.011232253 0.040375665 -0.08082096 0.040555865 -0.07602689 0.02907869
-0.00308199 0.058016393 -0.055582233 0.036708876 0.0045858845 0.07096981 0.029842468 0.09753047
-0.06613504 -0.067084715 0.036761083 -0.053941626 -0.082418114 -0.0039505404 -0.024033671 -0.031071108
-0.070452385 0.052658346 0.022544857 -0.01752884 -0.03317192 -0.092000075 -0.0873948 0.05317584
-0.065776505 0.040803675 -0.09653908 0.008986593 0.048457224 0.03794177 -0.069883876 0.06022443
-0.009727845 0.043078184 -0.026738612 0.01554166 0.060552984 0.018304281 0.005098732 -0.052948575
0.053553745 -0.064378954 -0.00035279026 0.07112194 -0.09934659 0.08110273 0.0078716595 -0.08969464
0.07706296 -0.094249085 -0.08989436 0.03767549 -0.04048772 0.018362189 0.0057145464 0.0633971
-0.01960628 -0.08388703 0.08838153 0.06362755 -0.0681473 -0.040610634 -0.08517457 -0.043123923
0.04683027 -0.04865579 0.050527953 -0.054777004 0.0701398 0.057297688 -0.015767453 -0.061269134
-0.043723773 -0.06344144 0.07447438 -0.045113586 -0.0192613 -0.060399838 -0.015803088 0.049288526
0.0024557337 0.07918062 0.046540853 0.04549873 -0.069679715 -0.0022344715 -0.07887976 -0.020203767
-0.008997553 0.04397281 0.07056119 0.033932496 -0.06888014 -0.0191271 -0.065560386 0.024385814
-0.048458092 0.035258308 0.065540105 0.046846278 -0.037087277 -0.027455581 -0.0470514 0.001878597
0.07206499 0.0491433 0.019970406 -0.00888628 -0.05692628 0.065026425 0.05840291 -0.07331658
-0.08763641 -0.090490654 -0.080807626 -0.0054084393 -0.100278154 -0.05502574 -0.06308805 0.07622122
0.06720709 0.018933933 0.024611883 -0.03316607 -0.020780541 -0.04980156 -0.032710508 -0.028713169
-0.043560088 -0.04683407 0.054064292 -0.10473919 0.02785379 0.04346615 -0.09460682 0.035401303
-0.11076658 0.032487992 -0.07546539 0.07808963 -0.012272975 -0.056319565 0.08490664 0.040025946
-0.021182679 0.0452199 0.05246893 0.032864798 -0.049377088 0.04807332 -0.048089422 -0.03371212
0.032621913 -0.07492611 0.010975272 -0.07609695 0.009541788 0.03578151 -0.049478382 0.015280977
-0.004794553 -0.0023649454 -0.046582155 -0.016451819 -0.0033109433 0.08936115 -0.022207173 0.08878723
-0.014867963 0.06600238 -0.01659212 -0.05597672 0.03844312 0.06637838 -0.025722735 -0.026945153
0.034869168 -0.014643837 0.035528164 0.05292328 0.06212192 0.031906046 -0.0062629455 -0.083132155
-0.07091775 0.08155133 -0.08020347 0.04104298 -0.06582534 -0.06596295 0.07520396 -0.054824784
-0.035156414 0.009817944 -0.017087253 -0.07970522 -0.055598374 -0.06984537 -0.08329917 0.04599827
-0.07608864 0.0070825373 -0.048138157 -0.012991073 -0.040969677 -0.06305712 0.040688675 -0.04558393
0.02284284 -0.043043327 0.076501764 -0.07827384 0.062161256 -0.046560835 -0.007391063 -0.07986324

fc3.bias f4 [64]
00000000: bbe9 a5bd f736 9abd 4679 a23d 2baf 303c
00000010: 4943 a23c 96c8 ab3d c08e febb e204 d43c
00000020: 4227 45bc b4c7 9e3d da07 3d3d d37f 3cbd
00000030: 84b9 b2bd 25b0 a2bd 1f16 78bc dcd7 6cbd
00000040: 3db4 6ebd 6c03 9d3d 2e6f aabd eb92 1bbd
00000050: 15c8 6a3b 2cb9 613d ab09 933d b5b1 6bbd
00000060: df83 753c 8536 9dbd e878 b1bd 5b49 85bd
00000070: 8a4c 083d 07e3 adbd f500 62bd 997a fd3c
00000080: a48c 0f3d 6e1e 8a3d 5696 9a3d 1b1d 5abd
00000090: 5874 33bd 90af a7bc fa60 b23d 84c6 95bd
000000a0: ecf9 61bd 5f31 bd3c 1e18 9fbd 6f75 0d3c
000000b0: 533b 49bd 1a5e a93c 121d 963d ee3f 65bd
000000c0: ca39 37bd d241 7f3d 56e8 b7bc 1a0c 233d
000000d0: 1017 ddbc 2880 433d ad9c 193c b4c7 4d3d
000000e0: 50ce c43b 9a18 ab3b 4b4c ad3d 4ade 613d
000000f0: 3350 2d3c 2734 aabd 9421 66bc 13ed 343d
-0.08101221 -0.07530015 0.07933287 0.010783951 0.019807475 0.08387868 -0.007768482 0.025881235
-0.012033286 0.07752934 0.046150066 -0.04602034 -0.087267905 -0.07943753 -0.015141993 -0.057823047
-0.058277357 0.07666668 -0.08321987 -0.03798191 0.0035824825 0.055108234 0.071795784 -0.05754252
0.014985054 -0.076764144 -0.08665639 -0.06508132 0.03327612 -0.08490568 -0.055176694 0.030942248
0.035046235 0.06744085 0.075482056 -0.053250413 -0.043812126 -0.020469457 0.08709903 -0.073132545
-0.055169985 0.023094831 -0.07768272 0.008633955 -0.04912884 0.020674754 0.073297635 -0.05596917
-0.044732846 0.06231863 -0.022449654 0.039806463 -0.026988536 0.04772964 0.009375733 0.05023928
0.0060060397 0.0052214386 0.08461817 0.055143632 0.010578203 -0.083107285 -0.014046092 0.044171404

fc4.weight f4 [1, 64]
00000000: ec6e 553d 6bf1 de3c 7dc9 77bc 8f9c 66bd
00000010: 7df3 8f3c 822f 4a3d a24e 7ebd 084b f93c
00000020: 6a14 023e 1ec8 853d aed7 92bb 809f 0a3c
00000030: 60eb b23d bd28 863d d4cc 96b9 2914 eb3d
00000040: 3088 44bd 9a81 d03d 6c9a 093e 340c 9dbd
00000050: 45b7 b1bd 2473 c83d 5b36 9d3d 9e8f 2d3d
00000060: 415c fd3d 12f9 7b3d b37a 6b3d 28b9 93bd
00000070: 18c8 70bc 4d0b e63d b593 0b3d 5df9 debc
00000080: 5e93 933c 6425 3d3c 6e93 d93d d90a a3bd
00000090: edde 553d 46d2 0ebd be47 03bc 2e3c c13d
000000a0: f841 91bd 02d5 33bc fb82 a4bd 75fc 5bbc
000000b0: 726a b03d 97e8 a83d 95ba 003e b609 fe3a
000000c0: 640d 37bd c697 8e3b 83c2 e93d 5fa7 d23d
000000d0: b155 983b 57db 123d 516d 2b3d ce76 08bd
000000e0: 3fbf a7bc 2350 23bd 39a4 d43d 2771 4ebd
000000f0: 0909 913b a89d 513d 4118 17bd b750 94bd
0.052107736 0.027214726 -0.015123722 -0.05630165 0.017572159 0.049361713 -0.06208671 0.030431286
0.127031 0.0653231 -0.0044812774 0.008460879 0.087363005 0.06550739 -0.00028762838 0.114784546
-0.04798144 0.101809695 0.13437814 -0.07668343 -0.08677534 0.09787586 0.07676383 0.042373292
0.12371112 0.06151683 0.057490062 -0.0721305 -0.014696144 0.11232624 0.03407641 -0.027218515
0.018014606 0.011544559 0.10623823 -0.079610534 0.05221455 -0.0348685 -0.00801271 0.094353065
-0.07092661 -0.010976078 -0.08032795 -0.01342689 0.08614053 0.08247488 0.12571175 0.0019381556
-0.044690505 0.004351589 0.11414053 0.1028583 0.004648887 0.03585371 0.0418523 -0.033316426
-0.020476935 -0.039871346 0.103828855 -0.05040088 0.004426126 0.051175743 -0.036888365 -0.07241958

bn1.weight f4 [256]
00000000: e325 7e3f e838 7e3f 046f 823f 9f76 803f
00000010: 44e9 7d3f e9b8 7e3f 2fcb 7e3f a445 7f3f
00000020: 6883 803f 83ba 803f 7088 7f3f a6a3 7d3f
00000030: 7bc6 803f bda2 803f 216f 7b3f aedf 7d3f
00000040: 1212 823f d354 7d3f a305 803f a8f7 7d3f
00000050: 925e 7d3f fd21 803f 9aa6 7c3f 004a 7e3f
00000060: 2c0b 7e3f 1a8d 7f3f 12d6 7e3f 9227 7b3f
00000070: 3a79 803f e8da 7d3f a196 803f ae15 803f
00000080: ef29 7e3f 5ba8 803f a1a3 813f 0db5 7d3f
00000090: a67b 823f 429d 803f 4495 7d3f b479 7e3f
000000a0: 2374 803f 620b 7e3f cd74 7f3f 7e78 803f
000000b0: 6b86 7d3f eb2b 803f 0d4e 813f 1cef 7e3f
000000c0: cde5 7e3f cf42 803f 0050 813f 3814 803f
000000d0: 9e92 793f b0a4 7f3f 68f0 803f 780e 823f
000000e0: 0a1f 803f 446b 803f d71c 813f e3b0 7d3f
000000f0: 3e94 813f d467 7f3f 3ed2 813f 7e2d 823f
00000100: 40b8 7d3f 04d9 7b3f a03f 7f3f faba 803f
00000110: 064c 803f 4ce1 7d3f 93de 7f3f fc2a 813f
00000120: 3579 803f 89c1 7e3f a10b 803f 683b 813f
00000130: 3f76 803f 7b1d 803f a1c7 7f3f 0b2d 7e3f
00000140: 04a2 813f c875 813f 0727 833f a3e3 803f
00000150: 6bd6 813f 1260 803f e1bb 7d3f 603b 7d3f
00000160: 4e11 803f 10b4 7d3f 53ab 7e3f 63f5 7b3f
00000170: a1b5 7d3f 17ef 7c3f 4f27 823f ac8e 813f
00000180: 3e65 823f e749 803f d38c 7e3f 0b85 7e3f
00000190: 1650 7e3f 8b5b 803f fecb 7d3f f32e 7a3f
000001a0: bf3a 813f 8625 813f 4e04 813f 1314 813f
000001b0: 5e87 7c3f 4465 7c3f 7704 803f a710 7e3f
000001c0: 73c6 823f 8bf1 803f f521 803f bb92 803f
000001d0: 756d 823f de44 823f 48b3 7f3f 7c54 803f
000001e0: 1e69 7f3f 3fe5 823f d46a 7f3f 2a27 803f
000001f0: 0455 803f 65f9 813f 5cad 813f 45ca 7d3f
00000200: 6460 803f 070a 813f 049c 813f b493 803f
00000210: 2f01 803f d104 803f c628 823f efd6 803f
00000220: 2440 823f be14 823f b2a4 7f3f 5be4 7d3f
00000230: a81b 823f 2f3d 803f e249 7f3f ba45 813f
00000240: 44b4 7a3f 4340 813f 09c6 7d3f 6eb4 793f
00000250: cdeb 7d3f ecbb 7c3f 5cc6 803f 1206 7b3f
00000260: d3a2 7c3f 7421 803f d27f 803f 5947 7b3f
00000270: 0637 7c3f 83e4 7e3f 9a96 7d3f d6c5 7f3f
00000280: 752b 803f cdf9 7a3f 89d3 7f3f b02f 823f
00000290: ec61 813f 9feb 7d3f 4021 7e3f 7871 7b3f
000002a0: af39 7d3f 7a7f 813f 75bc 803f eac0 773f
000002b0: 613d 7d3f 5ab0 803f 82e3 7e3f b825 7d3f
000002c0: 9a9d 813f 5e2f 813f 78a8 803f 7161 7b3f
000002d0: 530e 823f 9233 7f3f 9135 7e3f fcef 813f
000002e0: c0d1 7f3f 467d 813f f734 7e3f b96d 7f3f
000002f0: 9dd2 7e3f 8363 7d3f f453 7e3f 292a 803f
00000300: 626d 823f a458 7c3f b949 7f3f 9961 7f3f
00000310: 26cd 813f 98cf 803f 196e 833f 4c49 7f3f
00000320: e37d 7e3f a102 833f eef9 7d3f 12d3 7e3f
00000330: 0ec8 813f 76a7 7c3f 9c46 7e3f fb34 823f
00000340: f771 833f 9b44 833f d2d2 803f f43e 813f
00000350: 583d 813f 8376 803f 6743 7f3f c217 7e3f
00000360: 2464 803f 2f6d 7e3f 24a7 7d3f fdc0 813f
00000370: 76b1 7c3f abd2 803f 5c3e 7e3f 5268 7d3f
00000380: aaad 813f 78b4 803f 47fe 7e3f 4aff 803f
00000390: 935b 7d3f 2ae7 7e3f 7b53 813f dcd9 803f
000003a0: 3d7a 813f 9805 7f3f 19a2 7e3f 1ddd 7f3f
000003b0: 8d3d 803f 2d76 793f 4f72 7e3f bed8 803f
000003c0: 5730 7c3f ff6b 7f3f 10b0 7c3f 3bed 7e3f
000003d0: 8ef9 803f be97 7b3f cf5b 7f3f ea57 803f
000003e0: 96a8 7e3f d58f 7b3f 395c 803f 410e 7c3f
000003f0: fc8f 7b3f 88d0 7d3f a183 803f 0232 7f3f
0.9927656 0.9930558 1.0190129 1.00362 0.9918406 0.995009 0.99528784 0.9971564
1.0040102 1.0056919 0.9981756 0.9907783 1.0060571 1.0049664 0.98216444 0.99169433
1.0161765 0.98957556 1.000172 0.9920602 0.9897243 1.0010372 0.98691714 0.99331665
0.99235797 0.9982468 0.99545395 0.98107255 1.0036995 0.9916215 1.0045968 1.0006616
0.99282736 1.0051378 1.012806 0.99104387 1.0193985 1.0047991 0.99055886 0.99404454
1.0035442 0.9923612 0.997876 1.0036771 0.9903323 1.0013403 1.0101944 0.995836
0.995694 1.0020388 1.0102539 1.000617 0.97489345 0.9986067 1.0073366 1.0160666
1.0009472 1.0032735 1.0086926 0.9909803 1.0123365 0.99767804 1.0142286 1.0170133
0.9910927 0.98378015 0.9970646 1.0057061 1.00232 0.991719 0.99948996 1.0091243
1.003699 0.9951406 1.0003549 1.0096254 1.0036086 1.0008997 0.99913985 0.9928748
1.0127568 1.0114069 1.0246285 1.0069469 1.014356 1.0029318 0.99114805 0.98918724
1.0005281 0.9910288 0.9948017 0.98421305 0.9910527 0.9880232 1.0168246 1.0121665
1.0187147 1.0022553 0.9943363 0.9942176 0.9934095 1.0027937 0.9913939 0.9772789
1.0096053 1.0089576 1.0079439 1.0084251 0.98644054 0.9859202 1.0001363 0.9924416
1.0216812 1.0073713 1.0010363 1.0044779 1.0189654 1.0177267 0.99882936 1.0025783
0.9976977 1.022621 0.9977238 1.0011952 1.0025945 1.0154234 1.013103 0.99136764
1.0029416 1.0081185 1.0125737 1.0045075 1.0000361 1.000147 1.0168693 1.0065593
1.0175824 1.016258 0.9986068 0.9917657 1.016469 1.0018672 0.9972211 1.0099404
0.97931314 1.0097736 0.991303 0.9754094 0.9918793 0.98724246 1.0060534 0.9805614
0.9868595 1.0010209 1.0039008 0.9815574 0.9852146 0.9956743 0.99057925 0.9991125
1.0013262 0.98037416 0.9993215 1.0170803 1.0108008 0.99187654 0.99269485 0.98220015
0.98916143 1.0117028 1.0057513 0.9677874 0.9892178 1.0053818 0.995659 0.9888568
1.0126221 1.009258 1.0051413 0.9819556 1.0160621 0.99688065 0.99300486 1.0151362
0.9992943 1.0116355 0.9929957 0.997768 0.9954012 0.9897997 0.9934685 1.0012866
1.0189631 0.98572755 0.99721867 0.997583 1.0140731 1.0063353 1.0267974 0.9972122
0.9941084 1.0235177 0.9920949 0.9954082 1.0139177 0.98693025 0.9932649 1.0172418
1.0269154 1.0255312 1.0064337 1.0097337 1.0096846 1.0036167 0.9971222 0.99255
1.003056 0.9938535 0.9908316 1.013702 0.98708284 1.0064291 0.993139 0.98987305
1.0131123 1.0055075 0.99606746 1.0077908 0.98967856 0.9957148 1.0103601 1.0066485
1.0115429 0.9961791 0.9946609 0.9994677 1.0018784 0.97445947 0.9939317 1.0066144
0.9851126 0.99774164 0.9870615 0.99580735 1.0076158 0.98278415 0.99749464 1.0026829
0.9947599 0.98266345 1.0028144 0.9845925 0.9826658 0.9914632 1.004017 0.9968568

bn1.bias f4 [256]
00000000: a1fa 0cbc 5092 9b37 1c76 403c a15d 123b
00000010: 1172 c0bb 476a e2bb 9010 41bc a4a2 253b
00000020: e211 1abb fda0 2b3c 7b94 67bb 5500 86bc
00000030: 3482 23bb 48c5 06bc 4022 de3a df46 33bc
00000040: 67bd 2a3c 413f d0bb 5ae1 973b 0cc8 d1bb
00000050: 9a7e 96bc dcfb 95bc c3fb 29bc e09a 313b
00000060: 0b45 92bb 0bd5 b1bb ecdc af3a a7a5 5fbc
00000070: 6c40 51b8 91dd 33bb 5218 683c 941b ce39
00000080: c0c8 49bc ab5a 033c 7f45 723b e722 e2bb
00000090: 87bd 943b 2ae1 6f3b 3a51 9dbc 105f abbb
000000a0: 8964 9d3b bd57 bdbb 7143 1d3b c6fb 5a3c
000000b0: 7428 13bc f9a2 253c f5db 1d3c f3b9 dbba
000000c0: 265c c0bb d6bb 433b bee9 6a3b f48a 5f39
000000d0: 2adb 783c ea27 9a3b 4dfb c9bb 8716 e13b
000000e0: 72a5 5dbc 3d47 43bc b047 413c 1bc0 d2bb
000000f0: 68ef 803b 4af6 523b 3d8d 73bb 4948 563c
00000100: e019 abbb dc0d 0cbc 07c2 ea3b 483c 1dbc
00000110: 2e26 a23b e3c8 62bc 755b 6b3b fe5b 8a3c
00000120: e4bc 1d3c 27da c6bb 6156 873b 2d93 a13b
00000130: 0e71 893a b65b e33b 970c 20bc 44c0 33bc
00000140: 906f 0d3c 0f00 453c 6b51 f93b 7d15 853c
00000150: c6d5 55ba 28c3 f6bb 2913 54bc 20ed 98bb
00000160: fab2 0b3a 8bea ccbb 5d9e 86bb 4f97 5fbc
00000170: c44e 87bc f23c 83bc a452 933c f564 f83b
00000180: 8bf4 a43b 4a0f 1f39 1ba0 ce3a bd2b a83b
00000190: 8686 e1bb 8f71 66bc fd3f f4bb 5151 debc
000001a0: b296 223a 2457 263c 7b81 143c 15c8 4e3b
000001b0: f2e7 4abc ee43 dbbb a421 15bc 6356 63bc
000001c0: 9cd9 9c3c aeef d7bb 9742 023c c1b3 6e3b
000001d0: 84e0 3137 7fc1 c33c 6bde e0bb e74e 3b3b
000001e0: cb93 8b3b 04b7 8a3b ab0b 3ebc 3032 bc3b
000001f0: 9664 123b da40 033d 6d80 2f3c 169c 33bc
00000200: b030 98bb 9152 9dbb 25fb 4d3c d37c af3b
00000210: 8e34 49bb 3996 86bb c05e 1c3c d9c2 5a3c
00000220: 4346 273c a2bb 943c bd93 46bc 2ecc a5bb
00000230: 7968 fc3b 91c8 aaba 6024 46bc 8ed6 963a
00000240: c9e3 65bc 943e 7e3b cdc6 96bb b40c 87bc
00000250: 6507 00bb 49cf 32bc 65d9 333c f06f 91bc
00000260: 966d c8bc ea5c 123c 5ec9 a03b dba0 9ebc
00000270: 5700 12bc fa84 eeba c5f1 5c3b a4ae 483b
00000280: a570 60ba d67e 00bd 6307 b2bb cddc 363c
00000290: 0b04 053c 0127 febb 017e 99bb 53b2 80bc
000002a0: 9acf d2bb e47c e839 00c3 ddb9 d118 03bd
000002b0: f5a2 603b e80c 173c 296c f4bb 85f4 02bc
000002c0: 1d4b 433c c297 8f3c 041c 9b3b 4d3e 3abc
000002d0: 5c65 f53b 1fa1 07bc 2be9 39bb 604e 973b
000002e0: d26d 84bb 7c42 e23b 31c6 39bc cf25 0c3a
000002f0: 73fb c03b 0672 31bc 65a7 4e3b 270d 17bc
00000300: a7f1 a83b 5836 70bc 3530 e839 fa2a 113b
00000310: e4d5 993b 83a8 123a 8f2f dbbb 4fff faba
00000320: 226a dcbb 4224 9d3c 8e6a a3bc 7a73 65ba
00000330: 41c3 433b a193 63bb c907 06bc 8190 ee3c
00000340: ffad 333c b1fc 1e3c 9bae e7bb 6d94 553c
00000350: 5d30 7c3c 0084 abbb e3c3 0dbc 2194 8f3b
00000360: 3d4e ca3b 42a6 f83b 9951 1abc 2ecf 9b3c
00000370: ef71 87bc 78c6 4dbc ab84 0e3b d245 50bc
00000380: d66d 6f3c b5e7 a1bb 5e81 6fbb 03d8 73bb
00000390: 3d05 b0bb 87d7 14bc 4701 8e3b 0256 023c
000003a0: 5f4d 113b dfc9 09bc 92fb 7ebb 27d8 8cbb
000003b0: f55a 443a 8d8b 8abc 2a68 24ba 0c1d e63b
000003c0: 042e 1bbc ecd5 35bc 26fc 71bb 9043 623b
000003d0: c981 b53b ceff 8ebc 8765 27bb 6da3 83bc
000003e0: fe97 8bbc d1ae b1bc d55a 8b37 1202 87bc
000003f0: c888 2cbc 4e0a b03b 98bc 4abb 588e c6b9
-0.008604676 1.8545572e-05 0.0117469095 0.002233364 -0.005872973 -0.006909642 -0.011783734 0.0025273943
-0.0023509194 0.010475394 -0.0035336304 -0.01635758 -0.0024949433 -0.008225746 0.0016947463 -0.01094219
0.010421134 -0.0063551967 0.0046350183 -0.0064020213 -0.018370915 -0.018308572 -0.010374966 0.002710037
-0.004463797 -0.005427008 0.001341728 -0.013650334 -4.988948e-05 -0.0027445296 0.014165955 0.0003931193
-0.012315929 0.008017222 0.0036967692 -0.0069011333 0.004539195 0.0036602714 -0.01920377 -0.005229838
0.0048032445 -0.0057782815 0.0023996497 0.0133656915 -0.008981813 0.0101096565 0.009634961 -0.0016763791
-0.00587036 0.0029866598 0.0035844888 0.00021318701 0.015188972 0.004704465 -0.0061639906 0.0068691405
-0.013528215 -0.01191884 0.011796877 -0.006431592 0.0039347894 0.0032190257 -0.0037163042 0.013078758
-0.0052215904 -0.008548226 0.007164243 -0.009596892 0.004948399 -0.01384184 0.0035912667 0.016889568
0.009627555 -0.0060684863 0.00413017 0.004930875 0.0010485963 0.006938423 -0.009768627 -0.010971133
0.008632556 0.01202394 0.0076085827 0.016245598 -0.000815716 -0.0075305887 -0.012944021 -0.0046669394
0.0005329099 -0.0062535456 -0.004108234 -0.013646915 -0.01651705 -0.016020272 0.017983742 0.0075803944
0.0050340346 0.00015169117 0.0015764268 0.005132167 -0.0068824915 -0.01406516 -0.007453917 -0.027138384
0.0006202265 0.010152612 0.009064074 0.0031552364 -0.012384402 -0.0066914475 -0.009102259 -0.013875577
0.019146733 -0.0065898513 0.007950447 0.003642306 1.0602296e-05 0.023895977 -0.006862452 0.0028580965
0.0042595617 0.004233243 -0.011599462 0.0057432875 0.0022337786 0.03204427 0.010711771 -0.010962507
-0.004644476 -0.0048011024 0.012572085 0.0053554564 -0.003070149 -0.0041072634 0.009544075 0.013352119
0.010209623 0.018155877 -0.0121201845 -0.0050597405 0.007702884 -0.0013029744 -0.012093633 0.0011508034
-0.014031359 0.0038794624 -0.0046013356 -0.01648555 -0.0019535657 -0.010913678 0.010977124 -0.017753571
-0.024466317 0.008933285 0.0049068173 -0.019363811 -0.008911214 -0.0018197589 0.0033713442 0.0030621672
-0.0008561707 -0.03137096 -0.0054330095 0.011161041 0.00811864 -0.0077561145 -0.0046842103 -0.015710032
-0.0064334394 0.0004434354 -0.0004229769 -0.03200609 0.0034276817 0.009219386 -0.0074591828 -0.007992868
0.011919764 0.017528418 0.0047335643 -0.011367393 0.0074888896 -0.00827816 -0.0028367739 0.0046174973
-0.004041412 0.006904898 -0.011338756 0.000534621 0.00588935 -0.010830408 0.003153288 -0.009219444
0.0051557603 -0.014661394 0.00044286405 0.002215086 0.004694687 0.0005594568 -0.006689019 -0.0019149574
-0.006726519 0.019182328 -0.01994827 -0.0008752864 0.002987102 -0.0034725445 -0.008180567 0.02912164
0.010966777 0.009703801 -0.007070375 0.013035876 0.01539239 -0.0052342415 -0.00865266 0.004381672
0.0061738775 0.007588179 -0.009418868 0.01901969 -0.01653382 -0.012559526 0.0021746557 -0.012711959
0.014613589 -0.0049409517 -0.0036545615 -0.003720761 -0.005371718 -0.009084589 0.0043336484 0.007955076
0.002217136 -0.008409946 -0.0038907272 -0.0042982283 0.00074903603 -0.016912246 -0.0006271625 0.0070225056
-0.00947142 -0.011098366 -0.0036923974 0.0034525134 0.0055391532 -0.017455962 -0.0025542693 -0.016069138
-0.017040249 -0.021689804 1.6612388e-05 -0.01648048 -0.010530658 0.005372322 -0.0030935165 -0.00037871557
